models/stock_transformer_backtest.pt (torch, 311410 bytes, 15 tensors)

weight f4 [8, 6]
000000 ac 26 1d bd 18 d3 02 3d e7 ca 0d bd 24 34 08 3d
       -0.03836696 0.031939596 -0.03461733 0.03325285
000010 a3 b0 e7 39 ba d5 61 3d a5 2f 03 bd e0 50 58 3b
       0.00044191358 0.055135466 -0.03202786 0.003300719
000020 81 7d b7 3c 64 79 5f 3c 41 aa 78 bb 0a 37 f4 ba
       0.022398712 0.013639782 -0.0037943276 -0.0018632126
000030 f7 ba ab 3e 06 f8 6a 3e ca 8d 27 3e 0b 3c c6 3e
       0.3354108 0.22946176 0.16362682 0.38717684
000040 98 15 1b bd b9 5d 96 3d ba 54 0f 3d da 1e 23 3d
       -0.03786239 0.07342095 0.03499291 0.039824344
000050 36 de a1 bd b6 d5 ea 3b 19 67 4f bc 83 75 69 bd
       -0.079037115 0.0071665896 -0.012658858 -0.056996834
000060 f4 da 3d be b7 37 b1 3d 57 ea b4 be 0b db bf be
       -0.18540555 0.08653205 -0.35335037 -0.37471804
000070 d4 81 d0 3c f8 a5 1e bd b1 a9 b7 be d2 d0 a3 3d
       0.025452532 -0.0387325 -0.35871652 0.07998814
000080 85 b4 22 3f 19 78 e0 bb f5 b7 6c bd 69 27 89 3e
       0.635567 -0.0068502543 -0.057792623 0.2678788
000090 3a d2 10 be 8b 22 20 be 78 d7 e9 3b 78 d0 66 bd
       -0.14142695 -0.15638177 0.0071362816 -0.056351155
0000a0 18 88 18 bd db 3f 4f 3f b0 24 10 3f fe d7 41 3d
       -0.037239164 0.8095681 0.5630598 0.047325127
0000b0 e7 9c 53 3d 96 c6 4a be af e8 e4 3d 83 a1 59 bd
       0.051663306 -0.19802317 0.111771934 -0.053132545

bias f4 [8]
000000 f1 5f 15 3d 39 40 7d bd 8d e4 d5 be f8 ae 8c 3c
       0.03646845 -0.061828826 -0.41775933 0.017173275
000010 93 80 7e be b0 09 99 be 16 6a 0b be c3 0a 1e bf
       -0.24853735 -0.29890203 -0.13614687 -0.6173517

in_proj_weight f4 [24, 8]
000000 9d e9 d8 be 76 7a 81 3f 5a 58 8c 3d 9a 6d 7c bf
       -0.42365733 1.0115497 0.06852789 -0.9860474
000010 9d 12 f9 3e 39 68 09 bf ae 9d ac 3e 52 8e 85 3e
       0.48647013 -0.53674656 0.3371405 0.26085144
000020 8c d7 a3 bf 8e 39 c6 3d b2 42 f5 3c 84 9e bd 3f
       -1.2800155 0.096789464 0.02993903 1.4814
000030 d8 33 ff 3b 43 f0 fb bc 16 ec 08 3e 26 bb 34 be
       0.0077881627 -0.030754214 0.1337131 -0.17649516
000040 18 1e 52 3f 77 fa f2 3f 22 71 c3 3e 65 35 1d 3f
       0.8207717 1.8982686 0.3817225 0.614096
000050 63 43 03 3e 7e 05 26 be 40 f0 96 3e 29 08 98 3e
       0.12818675 -0.16213033 0.2948017 0.29693726
000060 9a 2f bc bf 2f f1 1e 3f 8d 07 0d 3d 60 34 f6 be
       -1.4702027 0.62086767 0.03443103 -0.48086834
000070 a4 97 af bb 49 d2 20 3f b0 68 5c 3e cf fc d1 3c
       -0.005358653 0.6282087 0.2152431 0.025633244
000080 78 3d eb bf 76 e8 7d 3e 8d 39 f7 be 4d 67 c2 3f
       -1.8378134 0.24795708 -0.48286095 1.5187775
000090 75 13 97 be 3b 6a 86 3c fd 5b cd 3d 23 12 c9 3c
       -0.29507032 0.016408077 0.10027311 0.024544781
0000a0 d6 e8 ed bf ef 52 41 3f f5 0b e2 3e ef 19 a1 bf
       -1.8586681 0.7551717 0.44149747 -1.2586039
0000b0 4d 8d 80 3e 2e 20 80 3e 4a 06 de bd b7 5d 85 3e
       0.25107804 0.2502455 -0.10841043 0.2604806
0000c0 71 86 41 bf 28 f3 1c c0 38 2c 6b 3e d8 22 91 3d
       -0.75595766 -2.452341 0.22966087 0.07086724
0000d0 5c c0 7b 3e a5 1b 8a 3d e2 b7 df 3e ab a3 13 3d
       0.24585098 0.06743554 0.4369498 0.036044758
0000e0 00 cf b3 be 1c 7d b3 be 72 3d 4b bf 79 95 76 bf
       -0.35118866 -0.35056388 -0.79390633 -0.9632183
0000f0 4a 80 1d be e4 d3 d3 be f1 67 8e be 61 23 ee be
       -0.1538097 -0.41372597 -0.27813676 -0.46511367
000100 92 4c 2e 3f 4d 60 85 3f ac 11 9b bd 77 d0 4c bf
       0.6808559 1.0420014 -0.0757173 -0.8000559
000110 01 2b fd 3e f1 eb e5 be 84 dd 88 3d d7 f5 c8 3e
       0.49446872 -0.44906572 0.06682876 0.3925006
000120 50 6d 22 bf c9 32 ad 3f a0 e2 6d 3e 35 23 b7 3f
       -0.6344805 1.3531123 0.23230982 1.4307619
000130 39 69 35 3e 6b b1 d5 3c 01 e8 45 3e 46 24 07 3d
       0.1771592 0.026085576 0.19326784 0.032993577
000140 1e 09 f1 3f 91 00 45 3e 61 a9 62 3e d4 43 01 3f
       1.8830907 0.19238497 0.22134925 0.5049412
000150 64 13 b5 bc 6e 56 5b be 67 99 c1 be e5 dc 5f 3e
       -0.022103973 -0.21419689 -0.3781235 0.21861608
000160 ed fa c9 be c4 2d d6 3f ce eb 6e bc 33 d4 2e bf
       -0.39449254 1.6732717 -0.014582587 -0.6829254
000170 c9 c3 1a be 32 0d 31 3e 27 a8 2e be 44 df 3a 3e
       -0.15113749 0.1729019 -0.17056333 0.18249232
000180 28 9c 60 bf 67 a1 ed 3f 0f d8 15 be 41 d8 ae 3f
       -0.87738276 1.8564881 -0.14633201 1.3659745
000190 49 7d 20 bd f4 b2 c8 bc 52 69 81 3e 2f 16 be bc
       -0.03918198 -0.024499394 0.25275666 -0.023203937
0001a0 a7 c8 12 bf 32 1f 09 40 38 79 5e 3e 65 9b 99 bf
       -0.5733742 2.142529 0.21725929 -1.2000548
0001b0 32 05 52 3b 81 32 e0 3c 19 0f 53 be a4 da 14 3e
       0.0032046554 0.027367832 -0.20611228 0.1453653
0001c0 29 12 3c c0 30 e7 6b bf 07 00 29 3e a2 73 1f 3d
       -2.9386084 -0.9214964 0.16503917 0.038928635
0001d0 e9 7a 32 3d d8 15 1c be 66 1d 3c be c9 0e 84 3e
       0.043574248 -0.15242708 -0.1837059 0.2579253
0001e0 be 5e 03 bf ec 9f 88 3e 9a 5e 3e bf 6f cb 31 bf
       -0.5131644 0.2668451 -0.743631 -0.6945104
0001f0 15 87 b3 3d a1 cc b0 bd dd a4 d1 3e 1d 5c e0 3d
       0.08765999 -0.0863278 0.40946093 0.10955069
000200 52 67 4b be 3b 8f 72 3d c8 70 66 3e c4 57 89 3d
       -0.19863632 0.059218626 0.2250396 0.06706193
000210 3a 88 b0 3d 37 48 1b be ee 03 28 3f d9 c9 48 3f
       0.08619733 -0.15164267 0.65630996 0.78432995
000220 a7 a5 54 3e 22 63 8a 3e 5d 17 d1 3e 24 0f ce 3d
       0.20766316 0.27028757 0.40838137 0.100614816
000230 76 db db be ff 5e 10 3d 37 c9 b3 3b e6 f8 35 3f
       -0.42940873 0.035246845 0.005486633 0.71082914
000240 7d 57 95 be a8 c5 0c bf d5 d7 a0 be 3d c0 78 bd
       -0.2916831 -0.549891 -0.31414667 -0.060730208
000250 25 5e 23 3d 79 3b 86 be f5 8b e5 3c c4 71 14 3e
       0.039884705 -0.2621725 0.028020838 0.14496523
000260 2b c0 85 be ae 9a 87 3e c2 5a 5d be 62 e0 3a 3e
       -0.26123175 0.264852 -0.21616653 0.18249658
000270 25 07 a9 3e fc 99 86 3e 5a 04 32 bf ca 1f 82 be
       0.33013263 0.26289356 -0.6953789 -0.25414878
000280 69 b6 80 be 27 6f b3 be 1e 13 34 bf 4d 33 75 be
       -0.25139168 -0.3504574 -0.7034167 -0.23945351
000290 b3 fe fe 3e 47 c0 87 be 28 81 0f bf ea 1b 02 be
       0.49803695 -0.26513883 -0.5605645 -0.12705961
0002a0 a6 79 49 be 37 7b 10 3d cf 03 45 bd 42 a1 9b be
       -0.19675311 0.035273757 -0.048099335 -0.30396467
0002b0 6a c5 65 3e d6 5c 6c 3e f8 42 72 be 5d ef 7c 3e
       0.22438589 0.23082289 -0.23658359 0.24700685
0002c0 67 dc 35 3e 23 d0 cb bc e9 7b a3 bd 14 eb 16 3f
       0.17759858 -0.02487952 -0.07982618 0.5895245
0002d0 7d 5a 38 3e b8 aa 9a be 1e f7 ab bf a6 28 09 bf
       0.18003269 -0.30208373 -1.3434789 -0.5357765
0002e0 3e db fa be ed 96 87 be e5 5d 73 3e 76 38 81 3e
       -0.48995394 -0.26482335 0.23766287 0.2523839
0002f0 cd b5 18 bf c5 53 d0 bd 6f 32 35 3e f1 fa 44 3d
       -0.59652406 -0.10172228 0.1769502 0.04809088

in_proj_bias f4 [24]
000000 c6 ce 99 3d f3 4c 1b 3e 1f a0 99 3e 0d 0e 90 bd
       0.07510142 0.15166073 0.30004975 -0.0703393
000010 40 1e ff bd 5c 35 2e bd b5 89 4e bd 65 b2 3c 3e
       -0.124569416 -0.042531356 -0.050424296 0.18427427
000020 e0 45 db 37 ba c9 1d b8 d8 35 84 37 26 af 72 39
       2.6139372e-05 -3.761959e-05 1.57607e-05 0.00023144166
000030 50 2b ae b9 af d0 cd b8 3f 27 1f b9 25 ec f4 39
       -0.00033220137 -9.814032e-05 -0.00015178042 0.00046715248
000040 a3 0e 32 3d b8 ac db 3e 97 fc e6 be 6c 5d 93 3e
       0.04347099 0.4290521 -0.45114586 0.28782213
000050 17 87 de 3d fd f0 10 3f 0e a9 60 bb 3b 7e 02 bf
       0.1086561 0.5661772 -0.0034280452 -0.5097386

weight f4 [8, 8]
000000 73 49 c4 3e e6 b3 19 3f 1d 1f 25 bf c0 9b 89 3e
       0.38337287 0.6004013 -0.645006 0.2687664
000010 c7 a7 1a bf 1c 4b e7 3e d0 91 25 bf 40 08 f4 bd
       -0.6041226 0.4517449 -0.6467562 -0.11915636
000020 29 87 90 be f1 d9 09 bf d9 35 2f 3e 30 7e 23 3e
       -0.2822812 -0.5384818 0.17110385 0.15966105
000030 22 55 f4 3e 7b 2f 43 be 81 94 02 3f fc b4 ea 3e
       0.477212 -0.19061081 0.5100785 0.45841205
000040 a6 5b 72 be df 79 f3 be e6 e3 82 3e 9e 41 8e 3e
       -0.23667774 -0.47553918 0.25564498 0.27784437
000050 d9 77 a4 be 1a 34 ac 3e b4 0d 08 3f 2a a2 e8 3d
       -0.32122687 0.336335 0.5314591 0.11359055
000060 3d 5d 35 3e 64 77 12 3e 78 7e b2 be c9 e0 43 be
       0.17711349 0.14303356 -0.34862113 -0.19128717
000070 8e d9 00 bf a0 f4 86 3e 68 20 d2 be 17 9a af bd
       -0.5033196 0.2635851 -0.4104035 -0.08574312
000080 1d cb 58 3e 97 a9 69 3d 39 04 b3 3e 15 c4 b9 be
       0.21171232 0.0570465 0.3496416 -0.3628241
000090 c5 2b b3 be dd 34 a2 bd 46 35 bd be 6a 11 e3 3d
       -0.3499433 -0.07920239 -0.36954707 0.11087306
0000a0 87 7c 9d bd 9c a4 a3 3e 5e 7c 7e 3c 6b 7a 96 3e
       -0.07689767 0.31961524 0.015532581 0.29390272
0000b0 49 95 09 3f 1c 36 bc 3e d9 27 a0 bd 55 36 b8 be
       0.53743416 0.36760032 -0.078201 -0.35978952
0000c0 83 06 e9 3e d9 25 1e 3d 9e 2f 84 3e 30 41 c6 be
       0.4551278 0.038610313 0.2581758 -0.3872161
0000d0 dd fe 26 bf 83 41 ef bd 3d a9 b6 be f9 01 07 3f
       -0.6523264 -0.11682417 -0.35675994 0.52737385
0000e0 86 09 8b be 1c 90 a3 bd 95 a1 72 be 01 c6 c3 3e
       -0.27155703 -0.07986471 -0.23694451 0.38237002
0000f0 28 9f 24 3f c3 ae ab 3d bd 0a e1 3e f8 de 14 bf
       0.64305353 0.083829425 0.43953505 -0.58152723

bias f4 [8]
000000 a7 2c 1b 3f 9b 5b 03 bf b3 8d a5 bc 62 37 a2 3e
       0.6061501 -0.51311654 -0.020209169 0.3168288
000010 0d eb 19 be 8b b2 f4 3e c0 1d c0 be a8 6f e2 3e
       -0.15031071 0.47792467 -0.37522697 0.44225812

weight f4 [2048, 8]
000000 5b 6b cb bc 97 cf 2f be 59 04 42 be 8f db bd bd
       -0.024831465 -0.17169033 -0.18946971 -0.09270393
000010 0b 01 47 be 26 1e df 3d af 64 a1 be 3d 47 c7 3d
       -0.19433992 0.10894422 -0.31522128 0.097303845
000020 29 ba ac 3e 5e 76 fa bd 62 8b a7 3b 34 0d 8c be
       0.3373578 -0.12229608 0.0051130513 -0.27353823
000030 da c3 b7 3d 73 6d cb 3d 02 9a c8 bd 98 8d ed 3e
       0.089729026 0.09932985 -0.09795 0.4639709
000040 3e 8b a1 be 9e b9 0e 3d 0a c3 91 be 6a 4d 02 be
       -0.31551546 0.034844987 -0.28469115 -0.12724844
000050 eb f1 92 3e b0 d0 8a bc e4 3b b0 bd 41 13 6d bd
       0.28700194 -0.016945213 -0.08605173 -0.05787969
000060 64 94 b0 bd 77 e0 bf 3e 24 68 88 bd 70 8d 99 bd
       -0.08622053 0.3747594 -0.06660488 -0.0749768
000070 89 fe 98 3e cc ef aa 3e 77 f5 35 bd 03 22 b9 be
       0.29881695 0.33386075 -0.044423547 -0.3615876
000080 da 04 55 be 7f ac 0a bf 4d 7e a7 be 2b 29 cd bb
       -0.20802632 -0.5416946 -0.32713547 -0.006261011
000090 df c4 d7 bc 50 b8 b4 be 3a 5d 9f be d9 85 84 3d
       -0.026338993 -0.3529687 -0.31125814 0.06470842
0000a0 7b 8c 9a 3c eb a5 5f 3e 53 52 e5 3e 2a 5f a4 be
       0.018865814 0.21840636 0.4478937 -0.32103854
0000b0 a7 0f bc 3e 5a 38 04 3e 04 b1 a1 bd 7a 08 c0 3c
       0.36730692 0.12912121 -0.07895091 0.023441542
0000c0 19 ca 70 3e d3 13 f6 ba a2 b3 12 bf 44 19 b5 bd
       0.23514594 -0.0018774219 -0.5730535 -0.0884271
0000d0 cd 14 e6 bd a2 f9 5f 3e e1 cb b7 3b a1 00 07 be
       -0.11234436 0.21872571 0.005609021 -0.13183834
0000e0 4f f3 d9 bc d0 07 88 be 0e 45 4a ba d6 23 da 3e
       -0.026605276 -0.2656846 -0.00077159784 0.42605466
0000f0 0a 7f e4 bd e4 ea 4c 3e cb 85 5d be b4 fa a1 3d
       -0.11157043 0.20011479 -0.21633069 0.07909146
000100 2e ef fd 3d 82 62 de be fc 50 ec 3d ea 0a 23 3f
       0.123991355 -0.4343453 0.11538884 0.6368853
000110 8b 11 14 bf cf 9e 26 3f fc f4 b0 3d 6d ba 09 bc
       -0.5783927 0.6508607 0.08640477 -0.008406264
000120 a7 ec 27 bd fc f3 ce 3e 17 a3 09 bf 56 d0 8b be
       -0.040997174 0.4042052 -0.5376448 -0.27307385
000130 a3 7c 88 bd 5b d1 13 be 9b de a2 be 1a b2 23 bf
       -0.066643976 -0.14435332 -0.3181046 -0.63943636
000140 45 2f 37 3e 9f 89 96 3d ec 15 4f bc 34 2d 17 3e
       0.17889126 0.07350468 -0.012639504 0.14763337
000150 bd c4 b6 3d f4 bd 07 bf b6 55 85 be 4a 36 c8 bd
       0.089242436 -0.5302422 -0.26041955 -0.0977598
000160 75 36 e0 3c 42 fc 94 3e 8e 19 53 3e f8 67 bf bd
       0.027369717 0.29098707 0.20615217 -0.09346002
000170 91 7c 76 3e 0c 68 b4 3e dc fd b0 3e e8 d0 1b be
       0.24070956 0.3523563 0.3456868 -0.1521641
000180 35 6f a9 bd 35 57 cb 3e 01 7d 56 3e a0 e3 4a be
       -0.08273164 0.3971497 0.20946123 -0.19813395
000190 a2 43 9a 3d 75 95 a5 be 4e 2d 92 3e 16 36 6d be
       0.07532431 -0.3234059 0.2855019 -0.23165163
0001a0 b4 d8 a3 be bf af 58 3d 84 1c 9b 3e 8f fb 48 3c
       -0.3200127 0.05290198 0.30295193 0.0122670075
0001b0 33 0a f7 3d b5 4e 6e be 33 ec 80 3e 9f b7 2c 3d
       0.12062492 -0.23272212 0.25180206 0.042167302
0001c0 a4 79 7f 3e 28 d7 c3 3e f4 9e 23 be 38 70 a8 be
       0.24948746 0.3825009 -0.15978605 -0.32898116
0001d0 1c 3d 54 3d 3e 99 b3 3c 4b 09 81 3e e4 a3 6f be
       0.05181609 0.021923658 0.25202402 -0.23402363
0001e0 25 d6 00 3e 0d d1 92 be 0c 5f 46 be 48 9f 9c be
       0.1258169 -0.28675118 -0.19372195 -0.30590272
0001f0 8a 66 2d 3f 2f 2e 75 3d 82 0a 95 bb 3c 06 d2 be
       0.6773459 0.059858497 -0.004548372 -0.4102038
000200 e7 3f b6 bd 75 28 a9 3c a2 2f 0c be de 94 25 3e
       -0.08898907 0.020649174 -0.13690045 0.1617007
000210 68 db 14 bd 7b 0d 66 3e 09 e5 57 be 51 e2 09 3e
       -0.036342055 0.2246608 -0.21083464 0.13465239
000220 8d 16 8d 3e dd b4 82 3e 33 fb b9 be 59 15 86 be
       0.27556267 0.25528613 -0.36324462 -0.26188162
000230 87 c3 a7 bd f7 f5 9a 3e 15 2f 38 3d f0 c6 bf 3e
       -0.08191591 0.3026578 0.044966776 0.37456465
000240 b6 4d 4f 3e d0 54 d8 3d c6 d3 a2 be 89 35 d2 bd
       0.20244488 0.10563052 -0.31802195 -0.10264117
000250 bf 6e 97 be b2 1b 19 3e d7 da 10 3d 27 3a 9b 3e
       -0.2957668 0.14951971 0.035364952 0.30317804
000260 ca 2c d7 be 44 10 02 3c 02 62 6b 3d 9f 76 72 be
       -0.4202636 0.007938448 0.057466514 -0.23678063
000270 57 fd 43 bd d5 0e 19 bf c7 e2 ff 3e c2 3b a6 be
       -0.047849026 -0.59788257 0.49977705 -0.32467467
000280 48 4b 2f 3e b2 c4 c0 bd 0c 8e e2 be f6 8b c2 be
       0.17118561 -0.09412517 -0.44248998 -0.37997407
000290 a1 a0 6b be c5 65 6c be 7c 71 bf 3e 69 4b 91 be
       -0.23010494 -0.23085697 0.3739127 -0.28377846
0002a0 19 03 6d 3e 62 c5 09 3f 7a e1 35 bf cd 95 ee be
       0.23145713 0.5381681 -0.71047175 -0.46598664
0002b0 8d 98 bd bd 2a 39 8e 3e a0 d8 63 3e 76 62 5d 3d
       -0.092576124 0.27777988 0.22250605 0.054048978
0002c0 32 c1 e9 3d f9 5e 91 3e 48 37 b3 bd dc a2 35 bd
       0.11413802 0.2839277 -0.087507784 -0.044344768
0002d0 e1 bd d4 bd 3a c8 46 3e 62 e1 56 3d 3d c3 08 3e
       -0.10387779 0.19412318 0.052461036 0.13355727
0002e0 2c 41 75 be 59 68 dc 3d e1 36 ef bc 24 ca ee 3d
       -0.23950642 0.1076209 -0.029200973 0.11659649
0002f0 2b a5 bb 3e 65 48 98 be 63 5b 81 be 67 3b e7 bb
       0.3664945 -0.29742733 -0.25265035 -0.007056642
000300 75 17 d6 be 97 ea 0d 3f 46 55 5a 3e 35 69 a1 bd
       -0.4181477 0.5543608 0.21321592 -0.07881395
000310 39 21 43 be b3 0e 9b 3d 01 30 a8 3d b9 45 32 3c
       -0.19055642 0.07571163 0.08212281 0.010880881
000320 8c 2f 89 bd 4d 13 81 3e c3 9a ca be 8f 7b 15 3e
       -0.06698522 0.25210038 -0.395712 0.14597915
000330 c1 c9 b3 be d7 e1 e0 bc 93 b5 bd 3e 6e 1a 30 be
       -0.35114864 -0.027451439 0.37052593 -0.17197582
000340 0c 15 1d be 66 c0 95 3d 0e f5 a3 3d 08 3a ce 3d
       -0.1534006 0.07312088 0.08005725 0.10069662
000350 6c c2 88 3e 7d 01 06 be 45 0c dd bd 53 dd ec bd
       0.26710832 -0.13086505 -0.10793356 -0.11565652
000360 3b 1b 28 be 1a 33 68 be c4 ce ee bd 37 7f c1 3e
       -0.16416638 -0.22675744 -0.11660531 0.3779237
000370 f2 57 18 be df 88 79 3e 80 84 65 be ae a5 64 3d
       -0.14877298 0.24368618 -0.22413826 0.055822067
000380 f9 9c 82 be 44 a9 0a bd b4 ea e8 bc 08 f7 3b bc
       -0.25510386 -0.03385283 -0.028432228 -0.011472471
000390 6b 63 f2 3c 2e 61 37 be 1a e2 28 3e 51 ff 85 be
       0.029588422 -0.17908165 0.16492501 -0.26171353
0003a0 1d 81 c9 bd 6e 9e ca bd 1d 9d 35 be 4c ab 31 be
       -0.098390795 -0.09893499 -0.17735715 -0.17350501
0003b0 ee b0 0f 3e cd 7b 05 bf 8b e3 9d ba 12 07 51 be
       0.14032337 -0.5214203 -0.0012045963 -0.20412853
0003c0 3d 87 49 be 96 28 19 3e 04 ca b8 be e5 a4 42 3e
       -0.19680496 0.14956889 -0.36091626 0.19008215
0003d0 f0 90 64 be e2 b2 b3 be 0a 16 cb 3e e9 19 5b 3e
       -0.22320914 -0.35097414 0.39665252 0.21396603
0003e0 b4 88 73 be e1 c7 c3 be 53 5a 99 3d f1 79 24 bd
       -0.23782617 -0.38238433 0.07487931 -0.040155355
0003f0 5b 80 5a be 75 b2 b5 3e e2 1f bf 3e 33 92 64 be
       -0.21338026 0.35487714 0.37329012 -0.22321396

bias f4 [2048]
000000 26 6a 93 3e c8 2e ad bc 95 60 81 be 39 d8 4a be
       0.28791922 -0.021140471 -0.25269 -0.19809045
000010 e6 20 47 3e eb c9 bc 3d 92 22 26 bd bc 44 78 3e
       0.19446144 0.092182 -0.040560313 0.2424497
000020 81 3a 03 3e 40 28 3e be c2 40 44 be e0 00 d6 3d
       0.12815286 -0.18570042 -0.19165328 0.10449386
000030 f9 f4 cf be 5c 24 c1 be cd d0 cd bd 04 27 ce be
       -0.40616587 -0.37723053 -0.10049591 -0.40264142
000040 de 3e 1f 3e 7e 2d 18 3e b5 85 0d be cd 2d 0b 3e
       0.15551326 0.14861104 -0.13820536 0.1359169
000050 c8 1e 88 3e 56 00 4a be 97 10 ce 3c ea 3d ce bd
       0.26585984 -0.1972669 0.025154395 -0.10070403
000060 ae ad 11 3e 7c f3 b5 be 5e 87 40 be 59 0a d7 3d
       0.1422641 -0.35537326 -0.18801638 0.105000205
000070 ad 5d 41 3c f4 c5 07 be e5 07 bc be d7 12 84 be
       0.011802119 -0.13259107 -0.36724773 -0.25795624
000080 4c 71 24 3c c3 3c df 3e d4 d8 cd be 29 97 6a be
       0.010036778 0.43601045 -0.4020449 -0.22909226
000090 28 32 0b be 90 33 f7 3e 8b b1 1f be 42 cb 98 bc
       -0.13593352 0.48281527 -0.15595071 -0.018651608
0000a0 8c 3a 8e 3d 32 9f 96 be 76 23 b4 3e 91 e4 b7 be
       0.06944761 -0.2941833 0.35183305 -0.3591657
0000b0 48 c0 d4 be 40 b9 86 be 22 d2 7c 3d 15 ce 0a 3e
       -0.4155295 -0.2631321 0.061723836 0.13555177
0000c0 b0 ec 70 3e 3f 62 cd 3d 8c 07 87 be 43 bb eb 3c
       0.23527789 0.100285046 -0.26372945 0.028775817
0000d0 a3 cb 8a 3c e1 69 66 bd 68 e8 ea bc aa 71 c4 be
       0.016942805 -0.056253318 -0.028675273 -0.3836797
0000e0 4e 0b ce 3e 4f 39 72 bd 26 b1 62 be ef 0f 96 3e
       0.40243 -0.059136685 -0.2213789 0.2930903
0000f0 d7 16 cf bd 3d ff 11 3e a9 87 7d bd 7d 6f a3 3d
       -0.10111778 0.14257522 -0.061896954 0.07980249
000100 13 0b 70 be 19 ba b7 be ac 6f 22 be b0 5e ad bd
       -0.23441724 -0.3588417 -0.15862912 -0.08465326
000110 93 53 ea be c0 25 81 be 17 9b e2 be 2e 66 45 be
       -0.45766887 -0.25224113 -0.4425895 -0.1927726
000120 96 35 d1 3c e9 72 f1 3e 99 12 07 bd a0 08 b6 3c
       0.025538247 0.47157982 -0.03297672 0.02222091
000130 28 8d af 3d c3 91 b6 bd fd ea 5c be d5 a3 dc bd
       0.08571845 -0.089145206 -0.21574016 -0.10773436
000140 5b 31 51 bd 57 a8 00 3c f2 94 20 be 61 69 cb 3c
       -0.05107246 0.007852635 -0.15681818 0.024830522
000150 8e 8c 8b 3d 76 31 0f 3e e7 20 e9 bc a2 20 7a 3e
       0.06813918 0.13983712 -0.028458072 0.24426511
000160 19 5d bb 3e 33 97 61 3d 53 ce be be 1b 01 e7 be
       0.36594465 0.055075835 -0.37266788 -0.4511803
000170 23 f2 22 be 4a 6a ab bd 8e df b5 3e 14 24 a1 be
       -0.1591268 -0.083698824 0.3552212 -0.31472838
000180 09 45 b1 be 51 53 b3 be 78 e4 04 3d b3 37 8c be
       -0.34622982 -0.35024503 0.032444447 -0.27386245
000190 a1 a7 4a bb f8 ba 95 3e da 8f df be 53 98 a7 be
       -0.0030922669 0.29244208 -0.43664438 -0.32733402
0001a0 e2 17 6f 3e 15 79 55 3e 1f b9 3c 3e ea e5 85 3e
       0.23348954 0.2084697 0.18429993 0.26151973
0001b0 8d 75 d5 be f6 fb 46 be 14 e3 8b 3e e4 ba 0a 3c
       -0.41691247 -0.19432053 0.27321684 0.00846741
0001c0 ff 47 69 3d f4 c0 c2 3d 04 ea 50 be a3 5d 16 3e
       0.056953426 0.09509459 -0.2040177 0.14684157
0001d0 b9 69 cf bd e1 f3 8d 3e d5 31 70 bd 5a 79 10 3e
       -0.10127587 0.27725127 -0.058641274 0.14108792
0001e0 f8 4d 04 bf c4 cb fa 3c 80 24 e6 bd 97 1f 9f 3e
       -0.5168147 0.030614741 -0.112374306 0.3107879
0001f0 01 52 5c be 9b d5 05 be 76 00 3b be 54 5c fb 3d
       -0.21515657 -0.13069765 -0.18261895 0.122734696
000200 0f d5 b8 be 38 fd 53 3e 36 fc c1 be 71 01 e4 3c
       -0.3610005 0.20702064 -0.37887734 0.027832719
000210 b7 e6 fe bc 34 7f 98 3e 85 3d 93 be 93 98 88 3e
       -0.031115873 0.29784548 -0.28757873 0.26678905
000220 e3 b4 09 be 60 c5 68 3e 27 a0 48 3e a6 98 3b 3e
       -0.13447909 0.22731543 0.19592343 0.1831995
000230 42 e7 85 be 94 c7 80 be c7 23 e8 3d 96 92 66 be
       -0.26152998 -0.25152266 0.11334949 -0.22516856
000240 f9 a9 26 be 66 e8 ae 3e a6 5f 4f 3b ba fe 7b 3e
       -0.16275777 0.3416168 0.0031642704 0.24608889
000250 36 6f c3 3e 35 2e 94 be c1 88 c4 bd fb 0f 27 3b
       0.38170785 -0.28941503 -0.09596396 0.0025491703
000260 3c 5d 94 bd 5a c8 1a be c6 1c 8a be 56 fd ee be
       -0.072443455 -0.1511549 -0.26975077 -0.46677655
000270 6d ed 0d 3d d1 f0 a4 bd 36 e9 da be 18 e1 75 be
       0.034650255 -0.080537446 -0.4275605 -0.24011648
000280 a7 b3 aa 3e a9 12 78 bd 02 be ba bc 88 b4 93 bc
       0.3334019 -0.06056467 -0.02279568 -0.01803042
000290 23 6a 05 bf ba 09 19 be 69 71 77 be 59 0b f5 bd
       -0.52115077 -0.14945117 -0.24164356 -0.11965055
0002a0 8b c8 94 3c f5 4e b9 bd 7e 8b dc be 8d 9a 86 be
       0.018162033 -0.09048263 -0.43075174 -0.26289788
0002b0 20 da a5 3d 09 c5 87 be bb e7 8a 3d 05 98 8f be
       0.08098245 -0.26517513 0.0678248 -0.2804567
0002c0 36 56 16 ba 2a bb cb bd 70 da 4a be 15 12 b5 be
       -0.00057348923 -0.09947808 -0.1980989 -0.35365358
0002d0 3a bf 20 bd 9d 3e e1 be 2e cd 52 bd 95 21 77 bd
       -0.039244868 -0.43993083 -0.051465206 -0.06033476
0002e0 2e 7b 84 be 68 3d 05 bb cf 9a 12 3e d3 bf b5 be
       -0.2587523 -0.002033079 0.14316867 -0.35497913
0002f0 34 a0 c5 be db a3 19 be c6 ba 66 3e 82 fb 48 bd
       -0.38598788 -0.15003912 0.22532186 -0.04906798
000300 c2 df d4 3d 02 10 d1 bd a0 76 03 bf c3 f0 88 3e
       0.10394241 -0.102081314 -0.5135288 0.26746187
000310 e0 f9 d7 bc cd 78 b7 be bf fb 58 be c2 d2 dd be
       -0.026364267 -0.3583435 -0.21189784 -0.43324858
000320 43 7e 1b be b4 8e 5e 3d 4b f1 b9 bd c5 ec db be
       -0.15184884 0.05433531 -0.09079226 -0.42954078
000330 13 bf b7 be 69 9a 0c bf ff 83 ad be 91 dc 89 be
       -0.35887966 -0.5492311 -0.33889768 -0.2692609
000340 63 d8 45 be 65 d9 8c bd 75 7d 18 be 31 fd 97 be
       -0.19320826 -0.06877402 -0.14891608 -0.29685357
000350 d3 7d 74 be a6 c5 c6 be 81 ec e9 be 49 c3 dd be
       -0.23876123 -0.3882267 -0.4568825 -0.43313053
000360 86 45 91 be 8f fc 5d bd 78 ef c5 be 7d da db 3b
       -0.28373355 -0.054195937 -0.38659263 0.0067093954
000370 d8 75 94 3e f5 b8 cc 3d 7d 2b dc 3d 32 17 d5 be
       0.28996158 0.09996215 0.10750482 -0.4161926
000380 cc 59 f9 3d 3f c2 f3 be 25 61 53 be ff 42 c2 3c
       0.121753305 -0.47609136 -0.20642526 0.023713587
000390 cd 9e 86 be f5 cc 70 bd cb d9 00 bf 2d e7 4f 3e
       -0.2629303 -0.058789212 -0.50332326 0.2030303
0003a0 c3 14 e6 3c 64 09 56 bb 2c bc 02 3d 2b 10 eb bc
       0.028086072 -0.0032659406 0.031917736 -0.028694233
0003b0 4f 8c 7a 3e 85 1e 58 3d a8 be b1 be 90 34 ca be
       0.24467586 0.05276348 -0.34715772 -0.39493227
0003c0 60 f2 1b 3e 41 f3 5a 3c d2 06 c8 bd 21 7b 15 3d
       0.15229177 0.01336366 -0.09766926 0.036494378
0003d0 c2 e4 9f be f7 81 ff be ba 14 93 be 6e 8f 62 be
       -0.31229216 -0.49903843 -0.2872675 -0.22125027
0003e0 7e 2c e9 3c 03 21 a5 be 20 ff b4 be 39 ff 20 3d
       0.028463598 -0.32251748 -0.35350895 0.0393059
0003f0 28 aa 45 3d 75 e3 92 bc 2a f8 0b be d4 1f 91 3e
       0.048257977 -0.017930726 -0.13668886 0.28344595

weight f4 [8, 2048]
000000 49 bd 85 bc 81 b9 04 3c 5f cd a7 bc e7 3f cf bd
       -0.01632561 0.008100868 -0.02048367 -0.1011961
000010 75 e3 b3 3d 09 a5 b6 bd f6 f1 87 3d 8d 5d 35 bd
       0.08783618 -0.08918197 0.06637947 -0.04427867
000020 6f 7e 83 3b 50 d8 96 be 9e f1 44 be db d2 33 bd
       0.004012875 -0.29461908 -0.19232795 -0.04390226
000030 b7 54 9f bd 95 af 66 3c 79 81 1a be 6e b1 58 3e
       -0.0777983 0.014079948 -0.15088452 0.21161434
000040 dd 34 ed bb ff c9 9f bd f4 b4 40 bd 19 02 6b bd
       -0.007238968 -0.078021996 -0.04704757 -0.057375047
000050 6a ac 0d 3e ad ed 6f 3e 60 8c 97 bd 46 86 c4 bb
       0.13835302 0.2343051 -0.07399821 -0.005997452
000060 30 f1 2f be 85 da c9 3a af 75 f1 bc c8 6c b5 bc
       -0.1718185 0.0015400207 -0.029475061 -0.022146598
000070 33 6f 97 3c 82 49 ba 3d 28 bb 13 be 3d cb 93 ba
       0.018485641 0.09096052 -0.14426863 -0.001127578
000080 82 c1 3f bd de 32 31 3c 8b 24 e0 3c a1 b6 3a be
       -0.046815403 0.01081535 0.027361175 -0.1823373
000090 aa 18 a6 bd 60 29 37 bb 30 91 04 3d 86 8a 37 3c
       -0.08110173 -0.0027948245 0.032365024 0.01120246
0000a0 73 ac 0f be f1 98 91 bd 91 25 a0 bc a8 67 b9 be
       -0.14030628 -0.071092494 -0.019549163 -0.36211896
0000b0 8e ac a5 bc 27 f5 b8 bd 61 21 31 3c 0b 2b 6b be
       -0.020223882 -0.09031134 0.010811181 -0.22965638
0000c0 d8 7a b2 3d ab 4e 08 3c 7a 06 02 be df 56 75 bc
       0.08714837 0.008319537 -0.12697783 -0.014974325
0000d0 24 b8 84 be bc f3 fa 3c f5 e9 df 3a a0 5c ba 3d
       -0.25921738 0.0306338 0.0017083274 0.09099698
0000e0 b5 33 bc 3d 63 c3 5e 3d 0e 95 02 be 57 87 8b 3d
       0.0918955 0.054385554 -0.12752172 0.068129234
0000f0 ae a8 4c 3c 8d ff b9 bd 97 bb a8 3d 67 2d 02 3d
       0.012491388 -0.090819456 0.08238905 0.03178158
000100 21 22 05 3e 8a 05 be 3c 8c 83 20 bd e2 4d e5 bd
       0.130013 0.023196 -0.039187953 -0.111964956
000110 1b 7e 97 3e d8 0e 78 3d 08 5c 9f 3d ba e8 25 3e
       0.29588398 0.06056103 0.077812254 0.1620206
000120 61 c5 96 bd 95 16 61 bc ee 5a 71 3c 11 89 85 bd
       -0.07361866 -0.013738294 0.014731152 -0.06520284
000130 31 c1 54 bd ad 4f a2 bc d8 2d 7a 3e 19 b0 92 3b
       -0.051942054 -0.019813383 0.2443155 0.004476559
000140 6f a6 41 3c 9d 3f 2b be 4e 15 c1 3c 9b e5 a9 3c
       0.011819466 -0.16723485 0.02356973 0.020739367
000150 5d d4 a9 bd 8f b7 4d 3e 4f e1 20 bd 91 4a 6e 3e
       -0.08292458 0.20089553 -0.03927737 0.23270632
000160 20 09 fb 3c 36 4e 1a 3e 2d 6c 08 be 94 64 6e be
       0.030644 0.15068898 -0.13322516 -0.23280555
000170 41 91 4b be 65 e6 d1 bc d2 de 78 bd 9f ca 41 3e
       -0.19879629 -0.025622556 -0.060759373 0.1892495
000180 f0 9a 8c bd 7b e2 5b bd 4d f3 82 3a bc 89 56 bc
       -0.068654895 -0.053682785 0.0009990722 -0.013094362
000190 f7 85 9b 3d ee a5 0c 3c 8e af d6 bb a4 82 24 be
       0.07593911 0.008584483 -0.0065516895 -0.1606546
0001a0 3a e7 07 be 1d 28 d5 3d c2 d5 e6 bd 15 b6 10 be
       -0.132718 0.104080416 -0.1127124 -0.14131959
0001b0 a4 68 2f 3e 86 15 34 3c cd 44 01 3d b9 cd 3e be
       0.17129761 0.01099146 0.031559754 -0.18633164
0001c0 99 10 10 be cd 82 bc 3d ee 23 82 3e 52 24 65 3d
       -0.14068832 0.09204636 0.25418037 0.05594284
0001d0 37 a6 8c bb f9 6d 29 3c e5 45 c8 ba f1 a6 4d bd
       -0.0042922753 0.010341161 -0.0015279619 -0.050208036
0001e0 8e 0a 33 3d 21 02 11 3e cb 75 10 be 38 d8 27 3d
       0.043711238 0.14160968 -0.14107434 0.040977687
0001f0 3c 3f d1 3c 77 31 71 bd e8 8e 3a 3d 61 8d d3 3d
       0.025542848 -0.058885064 0.045546442 0.103297
000200 06 25 e2 bd 7d ac da bb d9 33 15 3d 8f 38 49 bc
       -0.11042218 -0.0066733942 0.0364264 -0.012281551
000210 48 ee 8e 3e d4 9a 40 3c 02 af 0e be 2a 1f c5 3d
       0.2791617 0.011755664 -0.13933948 0.09625085
000220 37 c2 fb 3c 95 b7 85 be 2d 48 d4 3c 18 d7 21 3d
       0.030732257 -0.26116624 0.025913322 0.03951177
000230 11 a8 69 3e 82 e0 47 bd 55 7a 8b be 95 bc 3f bd
       0.22818018 -0.04879809 -0.2724177 -0.046810705
000240 4a ee 06 3e 16 5b e7 3d 8e 3e cb bd 4f 34 27 3d
       0.13176838 0.1129667 -0.09924041 0.04082137
000250 7e 2b 61 3c 2a fd 9b 3d f3 1c c7 bd 62 2f 35 bd
       0.0137432795 0.076166466 -0.097223185 -0.04423464
000260 94 4c 72 3c 52 27 ba bd 70 a2 b5 bd 45 7e 9c bc
       0.014788765 -0.09089531 -0.08868873 -0.019103179
000270 07 3d b5 bd 5e 8f 27 be 56 9b 9b 3e 91 ef 3c be
       -0.08849531 -0.16363284 0.3039195 -0.18450762
000280 9d 7f 71 3c 49 c7 25 be 91 0b f7 3c ab 57 23 be
       0.014739898 -0.16189303 0.030156882 -0.15951411
000290 73 41 94 3e c6 da b3 3d 81 9c 0d bd 72 c6 8c be
       0.28956184 0.08781962 -0.034573082 -0.27495152
0002a0 5e 48 1b 3e e8 19 8c 3d 20 09 fb 3c 8b 43 31 bd
       0.15164325 0.06840879 0.030644 -0.043277305
0002b0 06 ec 0e 3d 0b b8 b9 be 2d fb 21 bc f5 30 84 3e
       0.03489306 -0.36273226 -0.009886545 0.258186
0002c0 6a 7a df 3b a5 f2 de 3d b9 32 1e 3e ad 12 2b 3d
       0.006820013 0.108861245 0.15449037 0.041765857
0002d0 4d f0 99 3c 2a 16 25 3e e8 1f 43 be a0 27 46 bd
       0.018791342 0.16121736 -0.1905514 -0.048377633
0002e0 8e 1f bf bd 19 b1 9c 3c 4c 5f f4 3d 1f c2 bc bd
       -0.093321905 0.019127415 0.11932239 -0.09216713
0002f0 9c b2 9f 3d 25 c2 86 3d af ff b8 3d b5 c1 b7 be
       0.07797739 0.06579999 0.09033143 -0.35889974
000300 46 a8 33 3d b3 c1 80 3d 97 73 bb 3e cc c0 28 3d
       0.04386165 0.06286945 0.36611626 0.04119949
000310 71 a7 da bd f8 84 c1 3d e1 24 c1 3d 41 d1 e1 3d
       -0.10676468 0.0944919 0.09430862 0.1102624
000320 d2 7a 13 3d 52 1e 0a be 87 e5 0b bc fe 60 fa bd
       0.036005802 -0.13488129 -0.00853861 -0.12225531
000330 50 08 87 bd 47 ac 5a 3e f4 7b 79 be 7a a1 03 bd
       -0.06593382 0.21354781 -0.2436369 -0.032136418
000340 e0 58 94 3d 08 05 99 bd 5f ab 26 be b9 36 46 3e
       0.07243514 -0.07471663 -0.1627631 0.19356813
000350 a5 70 a0 bd 77 3d c2 3d 46 0c 21 be 02 f8 b6 bc
       -0.07833985 0.0948438 -0.15727338 -0.022335056
000360 c0 4d 93 bd a1 e0 93 bd a3 df b3 3d b1 a5 8a bd
       -0.07192564 -0.07220579 0.0878289 -0.067698844
000370 bb 5b 13 3b 03 5c 70 bd 1c 00 2a 3c c1 c9 3d be
       0.0022485096 -0.0586815 0.010376003 -0.18533994
000380 02 19 e7 3c c0 cb b6 3d 17 62 81 3d de ad db bc
       0.028210167 0.08925581 0.06317537 -0.026816305
000390 68 87 c7 3c 02 33 52 3d b7 2d 82 3e 8f b3 b2 bd
       0.024356559 0.051318176 0.25425503 -0.08725654
0003a0 90 e5 f3 bc 4d b1 3c be 0b 99 eb 3d f8 1f b6 bd
       -0.02977255 -0.1842701 0.115038 -0.08892816
0003b0 29 d3 55 bd b1 ad d0 3d 5d 14 83 3e 70 ab 5c bc
       -0.05220333 0.10189379 0.25601473 -0.013468608
0003c0 0b fd 7e be 10 c5 f2 bd 3e c8 ad bb 3d 89 af bd
       -0.24901216 -0.11853993 -0.0053034117 -0.08571098
0003d0 c9 19 a1 bd 56 49 72 be 4a 28 6e bd e2 96 01 be
       -0.07866246 -0.23660788 -0.05814389 -0.12655213
0003e0 0e 73 64 3e 5e 7a 72 be 95 1f 31 be 67 c2 37 be
       0.22309515 -0.23679492 -0.17297204 -0.17945252
0003f0 98 35 dd bd e0 0b 41 bc 96 17 0b 3e 6a 9c a9 3d
       -0.10801238 -0.011782616 0.13583216 0.08281787

bias f4 [8]
000000 b7 c3 ba 3c d3 96 25 be 75 d4 0e 3e 7e 06 c8 bc
       0.022798402 -0.16170816 0.13948233 -0.024417158
000010 92 d9 55 be 0d 2a a5 bc 46 49 1c be 12 40 ab 3d
       -0.20883778 -0.020161653 -0.15262327 0.0836183

weight f4 [8]
000000 7d ab 55 3f 4d ed 75 3f ec 7c 83 3f ee 41 8b 3f
       0.83464795 0.9606522 1.0272498 1.0879495
000010 15 13 a5 3f 63 1f 87 3f 1d 43 7f 3f 27 76 72 3f
       1.2896448 1.0556453 0.9971178 0.94711536

bias f4 [8]
000000 41 d4 98 3e 80 b8 84 be 52 b6 50 3c b4 ec 2f 3e
       0.29849437 -0.25922012 0.012738781 0.17180139
000010 79 f7 e1 be 98 a4 3d 3e cc 31 8d be a1 3d 01 3e
       -0.4413412 0.18519819 -0.27577055 0.12621166

weight f4 [8]
000000 ff bf 37 3f 27 6a cf 3a 91 32 16 3e cc 7c 33 3f
       0.7177734 0.0015824483 0.14667727 0.701123
000010 56 69 33 3d 50 94 52 3f ca 6e 14 3d a2 bc e9 3d
       0.043801628 0.82257557 0.03623847 0.11412932

bias f4 [8]
000000 ed e1 d5 bd 5e bd fe 39 ba 7f 4a be 59 02 06 be
       -0.104434825 0.00048587745 -0.19775286 -0.13086833
000010 88 2d 40 3d 74 49 98 bd 37 f9 3f 3d e2 bc 19 be
       0.046918422 -0.07435885 0.04686853 -0.1501346

weight f4 [1, 8]
000000 9c 51 e2 3d 39 7c bc 39 d8 23 69 3b bb 6d 90 3d
       0.11050722 0.00035950707 0.0035574343 0.070521794
000010 32 a4 30 3c 95 6c 25 be 0a a0 22 bb ed 9f a4 3b
       0.010781335 -0.16154702 -0.002481463 0.0050239475
