models/stock_transformer_state_dict_backtest.pt (torch, 307737 bytes, 15 tensors)

encoder.weight f4 [8, 6]
-0.04610432 0.007686132 -0.0162104 0.01921707 -0.016758211 0.045759425 -0.0325524 -0.0012818357
0.007739866 0.0025935844 -0.018379517 0.0114154145 0.359565 0.25650272 0.08236981 0.3100679
-0.046097945 0.102707416 0.029039945 0.051545966 -0.085644946 0.012272336 -0.0030276629 -0.058698166
-0.1657194 0.151145 -0.4137006 -0.36206424 0.053653322 -0.055013187 -0.32901824 0.0815351
0.6508374 -0.05675427 -0.028980164 0.27704078 -0.12456454 -0.14979632 0.0017929209 -0.052911263
-0.024532951 0.8041097 0.53759444 0.051390912 0.04107439 -0.16390683 0.09551783 -0.052512333
00000000: e2d7 3cbd f3db fb3b accb 84bc 1e6d 9d3c
00000010: 8448 89bc 3c6e 3b3d aa55 05bd 4503 a8ba
00000020: b49e fd3b 20f9 293b a490 96bc b807 3b3c
00000030: e718 b83e 5354 833e 81b1 a83d 38c1 9e3e
00000040: 33d1 3cbd 4458 d23d 2ee5 ed3c dd21 533d
00000050: 9e66 afbd e811 493c c16b 46bb 7d6d 70bd
00000060: 59b2 29be c1c5 1a3e 91d0 d3be 7c60 b9be
00000070: 96c3 5b3d 8255 61bd 1475 a8be e0fb a63d
00000080: 489d 263f 2a77 68bd cf67 edbc 4ad8 8d3e
00000090: b21b ffbd 3564 19be 7100 eb3a 7bb9 58bd
000000a0: 54f9 c8bc 22da 4d3f ca9f 093f 477f 523d
000000b0: 9f3d 283d 31d7 27be da9e c33d 2c17 57bd

encoder.bias f4 [8]
0.037469994 -0.068756536 -0.3510745 0.02337531 -0.22946501 -0.3121248 -0.12410132 -0.61678445
00000000: 237a 193d 3ad0 8cbd 09c0 b3be 947d bf3c
00000010: e0f8 6abe d2ce 9fbe d528 febd 96e5 1dbf

transformer_encoder.layers.0.self_attn.in_proj_weight f4 [24, 8]
-0.42615703 1.0786934 0.03878882 -1.0058463 0.46934876 -0.55590165 0.24899414 0.19650783
-1.3673817 0.09721426 0.043113343 1.4982096 -0.06375005 -0.15362945 0.1998176 -0.13630675
0.88227355 1.9201603 0.3377529 0.64682955 0.18811852 -0.28641012 0.21274912 0.20651974
-1.488088 0.6707901 -0.02172711 -0.5248758 0.020845406 0.6660542 0.15816459 0.055504046
-1.8652053 0.23674151 -0.48278967 1.5316235 -0.32666355 0.065250896 0.061844345 -0.05441649
-1.9639814 0.720988 0.4697157 -1.1702118 0.31038544 0.27216586 -0.17500013 0.24371259
-0.813202 -2.556425 0.26630136 0.06742123 0.21089068 0.06654672 0.4177502 0.0028736305
-0.33267182 -0.36038738 -0.87870276 -0.98995155 -0.07220783 -0.39034477 -0.2316904 -0.37174362
0.65444654 1.0237526 -0.034463543 -0.80597955 0.50775826 -0.4118751 0.11609631 0.38091913
-0.69864136 1.4060212 0.2202022 1.4847108 0.21890837 -0.012634403 0.17431419 -0.01682982
1.8927171 0.19118474 0.22455044 0.45646164 -0.016077645 -0.23438062 -0.32981613 0.19864129
-0.452482 1.6553382 -0.03819415 -0.6796418 -0.14861922 0.27091384 -0.15055099 0.15533969
-0.9293373 1.9140732 -0.14061993 1.3414543 -0.08536922 -0.068115555 0.23877874 -0.06824033
-0.60840815 2.3159194 0.24033144 -1.1270767 0.055372126 -0.008104282 -0.25024354 0.10622839
-3.0197113 -0.94273794 0.21049935 -0.00010600036 0.044180714 -0.14223944 -0.15711094 0.2471936
-0.51328194 0.273152 -0.7472453 -0.7515855 0.11889152 -0.12004362 0.46253592 0.107226826
-0.15409009 0.064994626 0.22295538 0.038005333 0.10439676 -0.122901104 0.67181045 0.75932544
0.16462776 0.20707408 0.36721876 0.085995354 -0.43801263 0.04984271 0.062877506 0.6502275
-0.25997898 -0.5389798 -0.28578487 -0.029977258 0.04255587 -0.26032916 -0.012020053 0.182365
-0.3240251 0.2511652 -0.227205 0.2052421 0.29506022 0.25293455 -0.6851503 -0.2631568
-0.27074054 -0.2983442 -0.70997804 -0.21668501 0.45474672 -0.28362194 -0.5486252 -0.09143746
-0.09207879 0.09040969 -0.07954436 -0.33480704 0.17584826 0.25960052 -0.22287174 0.2297044
0.14551996 -0.034268092 -0.060103476 0.583275 0.15191185 -0.27235714 -1.3341161 -0.50066924
-0.55456775 -0.29223123 0.30925375 0.22054091 -0.5465 -0.07721178 0.19121002 0.064770915
00000000: 4131 dabe a012 8a3f 07e1 1e3d 92bf 80bf
00000010: 7b4e f03e 924f 0ebf 52f8 7e3e 5939 493e
00000020: 5d06 afbf 4518 c73d 9e97 303d 55c5 bf3f
00000030: 638f 82bd 0a51 1dbe fc9c 4c3e ff93 0bbe
00000040: aedc 613f d0c7 f53f f3ed ac3e 9f96 253f
00000050: 24a2 403e 59a4 92be e8da 593e e979 533e
00000060: ab79 bebf e6b8 2b3f 0dfd b1bc 435e 06bf
00000070: fcc3 aa3c 8782 2a3f e6f5 213e 3658 633d
00000080: 0cbf eebf 5e6c 723e 3530 f7be 3d0c c43f
00000090: 7240 a7be 43a2 853d 7f50 7d3d d3e3 5ebd
000000a0: be63 fbbf ab92 383f 947e f03e 80c9 95bf
000000b0: d7ea 9e3e 5359 8b3e 3c33 33be cb8f 793e
000000c0: 022e 50bf 789c 23c0 a758 883e 2414 8a3d
000000d0: baf3 573e a649 883d 5be3 d53e 8553 3c3b
000000e0: f653 aabe b284 b8be aaf2 60bf 776d 7dbf
000000f0: b3e1 93bd 45db c7be 4040 6dbe 2e55 bebe
00000100: cf89 273f 530a 833f a529 0dbd ad54 4ebf
00000110: 72fc 013f 4be1 d2be e7c3 ed3d d507 c33e
00000120: 29da 32bf 81f8 b33f af7c 613e 010b be3f
00000130: 8429 603e 8700 4fbc 6b7f 323e b1de 89bc
00000140: 8e44 f23f efc5 433e 8df0 653e 57b5 e93e
00000150: 44b5 83bc 7901 70be a9dd a8be 9f68 4b3e
00000160: b9ab e7be 1fe2 d33f 7871 1cbd 01fd 2dbf
00000170: a32f 18be 38b5 8a3e 0a2a 1abe 5e11 1f3e
00000180: 0de9 6dbf 5a00 f53f acfe 0fbe c6b4 ab3f
00000190: 0fd6 aebd 2b80 8bbd 6a82 743e 96c1 8bbd
000001a0: a3c0 1bbf 0638 1440 7219 763e 0d44 90bf
000001b0: e2cd 623d d3c7 04bc ec1f 80be 458e d93d
000001c0: f342 41c0 4657 71bf 248d 573e 834c deb8
000001d0: d6f6 343d 37a7 11be b1e1 20be 5220 7d3e
000001e0: 7266 03bf 94da 8b3e 784b 3fbf e867 40bf
000001f0: 667d f33d 6ed9 f5bd 82d1 ec3e bd99 db3d
00000200: cbc9 1dbe e71b 853d 6a4e 643e 7bab 1b3d
00000210: f8cd d53d 93b3 fbbd c5fb 2b3f 2763 423f
00000220: 2e94 283e 3a0b 543e 1904 bc3e 551e b03d
00000230: 3143 e0be df27 4c3d ecc5 803d 4f75 263f
00000240: f71b 85be 95fa 09bf 6552 92be de92 f5bc
00000250: 104f 2e3d dd49 85be c2ef 44bc e4bd 3a3e
00000260: 9ee6 a5be ba98 803e 6da8 68be fc2a 523e
00000270: 2212 973e a380 813e 0366 2fbf 7dbc 86be
00000280: 819e 8abe 92c0 98be 1fc1 35bf ade2 5dbe
00000290: 90d4 e83e e536 91be b372 0cbf 9043 bbbd
000002a0: ce93 bcbd b728 b93d 27e8 a2bd d46b abbe
000002b0: 9111 343e 5cea 843e 7d38 64be a137 6b3e
000002c0: 2f03 153e b35c 0cbd 102f 76bd 8351 153f
000002d0: c88e 1b3e 6572 8bbe 51c4 aabf dc2b 00bf
000002e0: 27f8 0dbf 559f 95be 8256 9e3e 7ad5 613e
000002f0: 6de7 0bbf 3621 9ebd 8fcc 433e 9da6 843d

transformer_encoder.layers.0.self_attn.in_proj_bias f4 [24]
0.10535556 0.18808067 0.342152 -0.0719751 -0.091785684 0.010951089 -0.0455196 0.21065205
5.672816e-05 8.395573e-05 -8.829425e-05 0.00018099244 -0.0005641653 5.358977e-05 -0.00010666093 0.000583873
0.06827794 0.43996492 -0.45337117 0.2871846 0.07601708 0.55374575 -0.022469416 -0.49926543
00000000: a8c4 d73d 3898 403e 8c2e af3e ae67 93bd
00000010: 22fa bbbd 326c 333c c372 3abd 2cb5 573e
00000020: 66ef 6d38 6411 b038 9d2a b9b8 cac8 3d39
00000030: 7ee4 13ba 94c5 6038 27af dfb8 0e0f 193a
00000040: 4ed5 8b3d 1543 e13e 4420 e8be dc09 933e
00000050: d8ae 9b3d 48c2 0d3f c811 b8bc b89f ffbe

transformer_encoder.layers.0.self_attn.out_proj.weight f4 [8, 8]
0.4219062 0.6454606 -0.7064414 0.23226269 -0.5566374 0.4711075 -0.5936418 -0.12741087
-0.3718222 -0.515966 0.0922859 0.20779735 0.41886732 -0.15857722 0.4699951 0.47977653
-0.19254552 -0.4668496 0.25775874 0.29293412 -0.358128 0.34784457 0.47898617 0.11656914
0.13975722 0.15849318 -0.36524093 -0.21646047 -0.48371083 0.2154228 -0.3604557 -0.09962411
0.19467211 0.042882543 0.3542261 -0.35317355 -0.32482544 -0.087502524 -0.35576788 0.08179232
-0.116513655 0.32319516 0.019798392 0.25833213 0.54124075 0.34042305 -0.048906997 -0.40683392
0.38970342 0.06894337 0.20326695 -0.3483335 -0.6737577 -0.011961884 -0.4030548 0.55965424
-0.24461003 -0.07483461 -0.23507781 0.364145 0.6771616 0.022353707 0.45310947 -0.5594309
00000000: 1704 d83e e83c 253f 58d9 34bf 45d6 6d3e
00000010: ca7f 0ebf 0135 f13e e9f8 17bf ff77 02be
00000020: 7b5f bebe 5916 04bf 6400 bd3d d4c8 543e
00000030: c775 d63e 1162 22be 33a3 f03e 45a5 f53e
00000040: a72a 45be e906 efbe f4f8 833e 76fb 953e
00000050: 8e5c b7be af18 b23e ad3d f53e cdbb ee3d
00000060: 841c 0f3e 094c 223e dc00 bbbe d0a7 5dbe
00000070: f2a8 f7be cb97 5c3e a68d b8be ba07 ccbd
00000080: 2058 473e 9ba5 2f3d 205d b53e 2ad3 b4be
00000090: 854f a6be 8634 b3bd 3527 b6be bb82 a73d
000000a0: b69e eebd d679 a53e 3d30 a23c 1c44 843e
000000b0: c18e 0a3f ee4b ae3e b452 48bd 894c d0be
000000c0: 3587 c73e 2e32 8d3d 3625 503e c558 b2be
000000d0: 627b 2cbf c7fb 43bc 335d cebe 8045 0f3f
000000e0: 0d7b 7abe e342 99bd 3db8 70be 3771 ba3e
000000f0: 765a 2d3f 1f1f b73c f7fd e73e dd36 0fbf

transformer_encoder.layers.0.self_attn.out_proj.bias f4 [8]
0.6271187 -0.5330897 -0.01778615 0.29869646 -0.14757968 0.48133776 -0.3428438 0.44199938
00000000: da8a 203f 9178 08bf 43b4 91bc beee 983e
00000010: 211f 17be e771 f63e 3989 afbe be4d e23e

transformer_encoder.layers.0.linear1.weight f4 [2048, 8]
0.019482529 -0.1889045 -0.27072662 -0.031206781 -0.12878935 0.12925637 -0.34100917 0.051233068
0.3390151 -0.11729949 -0.015817188 -0.25015587 0.097992525 0.09200779 -0.10708265 0.45833984
-0.34299353 0.06660491 -0.24804561 -0.19034427 0.31641123 -0.081159815 -0.108701766 -0.05297213
-0.028725998 0.35949054 0.013543567 -0.14722298 0.18955344 0.40659705 -0.080990724 -0.421208
-0.1881466 -0.516073 -0.3101144 -0.013458631 -0.016134482 -0.3830773 -0.2947594 0.052480385
0.05645137 0.27136573 0.42405286 -0.37532842 0.37855324 0.1543625 -0.1161546 0.025404636
0.20872676 0.029283872 -0.58333725 -0.08638614 -0.08326782 0.22071047 -0.014620419 -0.12080901
-0.04975629 -0.20621873 0.0034594114 0.39308238 -0.15884076 0.1708372 -0.14161724 0.043024044
0.13350876 -0.4482776 0.10615649 0.64198667 -0.5962268 0.57364035 0.13016498 -0.017333083
-0.036883082 0.38094094 -0.57559663 -0.21253514 -0.038059227 -0.19801633 -0.2878425 -0.6747695
0.17616716 0.0600931 0.00990793 0.069512196 0.03305767 -0.4891354 -0.2375706 -0.018668156
0.05475741 0.29952508 0.18969473 -0.0599724 0.20441672 0.30418688 0.3396132 -0.21963583
-0.05901766 0.37409267 0.1820909 -0.25471893 0.0396525 -0.2764716 0.27455816 -0.16479695
-0.31027254 0.0842548 0.30567673 -0.04747859 0.08058869 -0.23164219 0.23819342 0.098107845
0.2767134 0.3403891 -0.18174489 -0.31626648 0.029410956 0.11096594 0.2634822 -0.28413087
0.10848279 -0.28296492 -0.26438126 -0.26387623 0.69449687 0.06703401 0.010156404 -0.40236884
-0.05092456 -0.007460886 -0.19550541 0.18358785 0.03378128 0.19756225 -0.17882505 0.07958491
0.23026356 0.28076667 -0.42060167 -0.2563017 -0.0043434026 0.32363763 0.0826383 0.30995965
0.19590445 0.11089591 -0.41688806 -0.09757342 -0.23112153 0.17096218 -0.023084126 0.3724656
-0.46992457 0.015925834 0.08749094 -0.2895286 -0.045435715 -0.56375647 0.4474775 -0.25351834
0.16368607 -0.093936376 -0.3265841 -0.35311347 -0.27446863 -0.2872351 0.5290554 -0.4051309
0.2478178 0.52230215 -0.74414897 -0.44947857 -0.019324636 0.27074942 0.16211183 0.039218526
0.11681453 0.2578931 -0.122569144 0.03409452 0.041359436 0.15382907 0.14058493 -0.0085010445
-0.19155377 0.104822725 -0.0434564 0.12928233 0.37361243 -0.29477492 -0.26366004 -0.0057109264
-0.40770775 0.56016976 0.19807443 -0.059848413 -0.17385572 0.08081156 0.043032948 0.028317867
-0.059413336 0.30388534 -0.429706 0.03952159 -0.37091234 -0.012849785 0.33089346 -0.060088985
-0.10109071 0.068582356 0.11767375 0.07171454 0.18735455 -0.1215075 -0.04227247 -0.15640347
-0.20016862 -0.24328089 -0.10679964 0.29291585 -0.15502137 0.24816766 -0.18446733 0.10399378
-0.1710669 -0.094724216 -0.08131417 0.05758201 0.10482854 -0.3129719 0.17745298 -0.35428622
-0.077471934 -0.13756545 -0.17992853 -0.15661368 0.19015615 -0.5755618 0.0925226 -0.25158122
-0.0894166 0.10154377 -0.38683626 0.096669264 -0.3002837 -0.28445497 0.27127308 0.33164352
-0.20708835 -0.3439743 0.060344722 -0.012547711 -0.26924977 0.40590462 0.30708143 -0.27364442
00000000: d399 9f3c 2e70 41be ae9c 8abe 5da5 ffbc
00000010: 5be1 03be c85b 043e c198 aebe c4d9 513d
00000020: 6393 ad3e b73a f0bd 0c93 81bc 6e14 80be
00000030: 4eb0 c83d 956e bc3d 264e dbbd 85ab ea3e
00000040: d99c afbe 2868 883d abff 7dbe 9ce9 42be
00000050: a700 a23e 1e37 a6bd 089f debd 4ef9 58bd
00000060: c952 ebbc 250f b83e d6e5 5d3c 9fc1 16be
00000070: 4c1a 423e 7d2d d03e 77de a5bd 93a8 d7be
00000080: 81a9 40be 5c1d 04bf 51c7 9ebe 9781 5cbc
00000090: 762c 84bc b522 c4be b4ea 96be acf5 563d
000000a0: 8d39 673d 73f0 8a3e 751d d93e 0c2b c0be
000000b0: bbd1 c13e 3411 1e3e 77e2 edbd 621d d03c
000000c0: 78bc 553e bbe4 ef3c 9755 15bf 37eb b0bd
000000d0: 5288 aabd ed01 623e 7b8a 6fbc b76a f7bd
000000e0: 40cd 4bbd 012b 53be 4bb7 623b 1842 c93e
000000f0: 27a7 22be f2ef 2e3e 1c04 11be fb39 303d
00000100: 85b6 083e a484 e5be 9368 d93d 3d59 243f
00000110: 52a2 18bf 18da 123f f849 053e 1cfe 8dbc
00000120: b712 17bd b10a c33e 4d5a 13bf d0a2 59be
00000130: fee3 1bbd cbc4 4abe 1860 93be b2bd 2cbf
00000140: 2a65 343e 2f24 763d df54 223c 695c 8e3d
00000150: 7b67 073d f56f fabe b545 73be f6ed 98bc
00000160: 4e49 603d 5a5b 993e 563f 423e 9fa5 75bd
00000170: 9e52 513e 62be 9b3e c8e1 ad3e 37e8 60be
00000180: 80bc 71bd 1389 bf3e 0976 3a3e 856a 82be
00000190: a96a 223d b08d 8dbe e392 8c3e 88c0 28be
000001a0: 0bdc 9ebe c88d ac3d a981 9c3e e978 42bd
000001b0: af0b a53d 9c33 6dbe fae8 733e c4ec c83d
000001c0: 61ad 8d3e 7b47 ae3e 551b 3abe aeed a1be
000001d0: 3fef f03c 1c42 e33d 24e7 863e 9a79 91be
000001e0: 3a2c de3d c7e0 90be fb5c 87be c91a 87be
000001f0: 8cca 313f 2149 893d 0c67 263c 4a03 cebe
00000200: 4596 50bd 737a f4bb 9232 48be 74fe 3b3e
00000210: 3d5e 0a3d c24d 4a3e ea1d 37be 6afd a23d
00000220: 36ca 6b3e a6c0 8f3e 1a59 d7be fa39 83be
00000230: 1a53 8ebb d5b3 a53e 453e a93d 08b3 9e3e
00000240: 2d9b 483e 651d e33d 5a72 d5be 93d4 c7bd
00000250: 1fab 6cbe b610 2f3e ec1a bdbc d0b3 be3e
00000260: f499 f0be e576 823c 732e b33d 183d 94be
00000270: cd1a 3abd 5852 10bf c51b e53e 28cd 81be
00000280: 529d 273e b761 c0bd 0836 a7be 4acb b4be
00000290: 2787 8cbe 7b10 93be 2d70 073f 516d cfbe
000002a0: f3c3 7d3e 98b5 053f 8c80 3ebf 0e22 e6be
000002b0: b34e 9ebc ab9f 8a3e a500 263e 9ba3 203d
000002c0: 753c ef3d 900a 843e 8805 fbbd b2a6 0b3d
000002d0: 8368 293d 5e85 1d3e 7ff5 0f3e f747 0bbc
000002e0: ac26 44be 4cad d63d 57ff 31bd 9662 043e
000002f0: 214a bf3e bdec 96be 73fe 86be b922 bbbb
00000300: 12bf d0be 4967 0f3f 06d4 4a3e 9c23 75bd
00000310: 3c07 32be 8880 a53d 5143 303d dffa e73c
00000320: 665b 73bd dc96 9b3e 6d02 dcbe 64e1 213d
00000330: 39e8 bdbe e887 52bc de6a a93e de1f 76bd
00000340: a508 cfbd e874 8c3d effe f03d 13df 923d
00000350: dfd9 3f3e edd8 f8bd e625 2dbd 3b28 20be
00000360: 01f9 4cbe a01e 79be c5b9 dabd 11f9 953e
00000370: ecbd 1ebe aa1f 7e3e 01e5 3cbe b1fa d43d
00000380: 292c 2fbe c5fe c1bd 0b88 a6bd 1ddb 6b3d
00000390: 58b0 d63d da3d a0be 3cb6 353e 0165 b5be
000003a0: 9ba9 9ebd f5dd 0cbe 2f3f 38be 565f 20be
000003b0: 4bb8 423e 0558 13bf 7d7c bd3d 41cf 80be
000003c0: 0d20 b7bd 2ef6 cf3d 670f c6be 89fa c53d
000003d0: c9be 99be 15a4 91be 4ee4 8a3e 2ecd a93e
000003e0: f80e 54be 661d b0be 072c 773d ea94 4dbc
000003f0: 1bdb 89be bbd2 cf3e c739 9d3e 1f1b 8cbe

transformer_encoder.layers.0.linear1.bias f4 [2048]
0.21609311 -0.03288627 -0.2450565 -0.16142957 0.18384686 0.12324312 -0.051437773 0.23091473
0.1469985 -0.15552951 -0.20235409 0.0657896 -0.4279422 -0.37824887 -0.043210305 -0.4030302
0.0661284 0.13470551 -0.14575271 0.16625208 0.2720458 -0.26509494 -0.06087153 -0.11526433
0.15083183 -0.33467138 -0.1846166 0.17104445 0.014626231 -0.06510328 -0.3578378 -0.29625598
-0.009700661 0.39060253 -0.40183562 -0.19985107 -0.1248448 0.4847645 -0.1502513 -0.047954097
0.010174752 -0.2803983 0.32403412 -0.38473752 -0.41830686 -0.26738697 0.063547246 0.18368642
0.19225135 0.10438935 -0.3442208 0.0719215 -0.017085599 -0.064261556 0.019945055 -0.38563806
0.45003235 -0.023981776 -0.19338824 0.26007012 -0.09813417 0.09917165 -0.025452087 0.09889148
-0.19733082 -0.3348921 -0.16900526 -0.106835224 -0.43457735 -0.2626542 -0.40845722 -0.2693268
-0.017215468 0.41625366 -0.000394928 -0.061056882 0.10505312 -0.13672407 -0.2589869 -0.031072358
-0.056077406 0.0098526 -0.06749902 0.005400344 0.08628304 0.13527216 -0.043494985 0.24397737
0.35066 0.083811946 -0.34314582 -0.4076987 -0.15014222 -0.14575487 0.29873303 -0.30173704
-0.35408846 -0.33736527 0.02001472 -0.26906583 0.04209587 0.2813346 -0.4378695 -0.36843655
0.24930182 0.14511156 0.21763657 0.34904322 -0.39330822 -0.19059473 0.16314073 -0.0035251533
0.102888465 0.07688917 -0.3031181 0.15823019 -0.14460322 0.16164725 -0.1172244 0.10295772
-0.44762495 -0.016942116 -0.08324935 0.4072654 -0.14225061 -0.22060165 -0.24873905 0.14618866
-0.43626946 0.24197781 -0.3565761 0.0136199305 -0.008425585 0.2899042 -0.32078817 0.2915625
-0.09536213 0.23081183 0.17130797 0.13904734 -0.29839152 -0.2757578 0.16610175 -0.2770716
-0.13701348 0.38379374 -0.017560305 0.24898571 0.42574632 -0.29616114 -0.104077674 0.0023220931
-0.08617138 -0.10554183 -0.18396413 -0.51849353 0.02530403 -0.08912815 -0.4029756 -0.28291693
0.3454308 -0.061047353 -0.035229057 0.0029637797 -0.48277685 -0.09693042 -0.22804031 -0.07626818
0.052889958 -0.12020689 -0.42952773 -0.21011958 0.091364115 -0.28282747 0.038691387 -0.31819928
0.11904721 -0.06619874 -0.13274755 -0.36915538 -0.048184894 -0.47470415 -0.016508874 -0.072655015
-0.23243013 -0.043694288 0.18853375 -0.3555215 -0.31308097 -0.13884412 0.16498809 -0.0003243212
0.24870221 -0.010576864 -0.54549253 0.25062898 -0.011246971 -0.3484679 -0.21750496 -0.4622143
-0.10494054 0.04861655 -0.04735056 -0.36371636 -0.32677257 -0.5394645 -0.31948638 -0.3658346
-0.11908961 -0.020820035 -0.12257199 -0.30289972 -0.18309106 -0.36995947 -0.45918468 -0.43313053
-0.2920539 -0.04160278 -0.40817636 -0.019376727 0.31304732 0.047239948 0.112224825 -0.41323167
0.14714603 -0.50662917 -0.10718385 -0.07427695 -0.2867973 0.041514065 -0.47051382 0.13737752
-0.055544518 0.0042970357 0.01632045 0.007898121 0.26418877 0.10155802 -0.36677465 -0.33639452
0.23113887 -0.04382592 -0.086159185 0.10025778 -0.21121387 -0.5201062 -0.26621747 -0.28754178
0.041663058 -0.24545619 -0.29743454 0.0017460868 0.05612116 -0.042977583 -0.17575775 0.25660366
00000000: 8347 5d3e c1b3 06bd 17f0 7abe cb4d 25be
00000010: 5a42 3c3e e466 fc3d 6ab0 52bd e974 6c3e
00000020: c686 163e 2143 1fbe e935 4fbe b3bc 863d
00000030: 3d1b dbbe d6a9 c1be 4afd 30bd f959 cebe
00000040: 546e 873d 3ef0 093e 3340 15be fc3d 2a3e
00000050: 9649 8b3e 86ba 87be 6d54 79bd b40f ecbd
00000060: a973 1a3e 0c5a abbe 220c 3dbe 4726 2f3e
00000070: dca2 6f3c de54 85bd 8436 b7be ddae 97be
00000080: 85ef 1ebc 0efd c73e 66bd cdbe c2a5 4cbe
00000090: a1ae ffbd 0d33 f83e 7adb 19be 846b 44bd
000000a0: 01b4 263c 5e90 8fbe cde7 a53e 51fc c4be
000000b0: 512c d6be f2e6 88be 0f25 823d 4b18 3c3e
000000c0: 8add 443e 15ca d53d b53d b0be 944b 933d
000000d0: 19f7 8bbc 909b 83bd d063 a33c 5a72 c5be
000000e0: a46a e63e 6e75 c4bc 9107 46be e927 853e
000000f0: 91fa c8bd 821a cb3d e580 d0bc 9e87 ca3d
00000100: 1711 4abe fa76 abbe b70f 2dbe 6dcc dabd
00000110: ec80 debe 9c7a 86be 4e21 d1be 34e5 89be
00000120: 7407 8dbc 331f d53e 570e cfb9 c816 7abd
00000130: 1726 d73d 6501 0cbe ee99 84be 758b febc
00000140: 6cb1 65bd cd6c 213c ed3c 8abd 5ef5 b03b
00000150: 2ab5 b03d c984 0a3e cc27 32bd 34d5 793e
00000160: b589 b33e 99a5 ab3d cfb0 afbe e2bd d0be
00000170: e2be 19be c440 15be 89f3 983e 477d 9abe
00000180: 154b b5be 24bb acbe e9f5 a33c ffc2 89be
00000190: b86c 2c3d 170b 903e 6e30 e0be b7a3 bcbe
000001a0: fa48 7f3e 2098 143e 1fdc 5e3e cbb5 b23e
000001b0: b25f c9be 442b 43be 5d0e 273e 4206 67bb
000001c0: 30b7 d23d 1278 9d3d 4c32 9bbe 1807 223e
000001d0: de12 14be db86 253e 5913 f0bd 7fdb d23d
000001e0: 192f e5be 31ca 8abc a37e aabd 1785 d03e
000001f0: 25aa 11be 66e5 61be 73b5 7ebe 7bb2 153e
00000200: b65e dfbe 08c9 773e 2591 b6be 2126 5f3c
00000210: 770b 0abc 536e 943e 593e a4be ae47 953e
00000220: 384d c3bd f059 6c3e 5b6b 2f3e 6d62 0e3e
00000230: c6c6 98be 2030 8dbe 9416 2a3e 54dc 8dbe
00000240: 434d 0cbe 9d80 c43e a1da 8fbc 1cf6 7e3e
00000250: 6cfb d93e 6fa2 97be ad26 d5bd 422e 183b
00000260: 9f7a b0bd 5126 d8bd 1861 3cbe febb 04bf
00000270: 664a cf3c d288 b6bd d152 cebe 7dda 90be
00000280: 4edc b03e ca0c 7abd 584c 10bd f93b 423b
00000290: 872e f7be 7583 c6bd 6683 69be 7e32 9cbd
000002a0: 24a3 583d 082f f6bd 0feb dbbe 9629 57be
000002b0: 1c1d bb3d c3ce 90be dc7a 1e3d 04eb a2be
000002c0: 06cf f33d 3493 87bd f9ee 07be ef01 bdbe
000002d0: 865d 45bd 6c0c f3be 9e3d 87bc 27cc 94bd
000002e0: 2a02 6ebe c8f8 32bd fe0e 413e ea06 b6be
000002f0: 264c a0be 272d 0ebe a3f2 283e a809 aab9
00000300: cbab 7e3e 954a 2dbc 66a5 0bbf 7152 803e
00000310: 3745 38bc 626a b2be 9fb9 5ebe 5aa7 ecbe
00000320: 11eb d6bd 2622 473d a9f2 41bd 0839 babe
00000330: bc4e a7be 581a 0abf b893 a3be ac4e bbbe
00000340: 41e5 f3bd c78e aabc 0607 fbbd ac15 9bbe
00000350: 397c 3bbe 546b bdbe 411a ebbe 49c3 ddbe
00000360: 1788 95be ad67 2abd 7efc d0be f1bb 9ebc
00000370: bd47 a03e ad7e 413d 21d6 e53d 1a93 d3be
00000380: 73ad 163e 73b2 01bf 3583 dbbd 831e 98bd
00000390: 19d7 92be a70a 2a3d 30e7 f0be b1ac 0c3e
000003a0: a682 63bd 26ce 8c3b 77b2 853c 1f67 013c
000003b0: c043 873e a7fd cf3d e3c9 bbbe e73b acbe
000003c0: abaf 6c3e cf82 33bd 3a74 b0bd f353 cd3d
000003d0: 7348 58be ae25 05bf a84d 88be ad38 93be
000003e0: e2a6 2a3d de58 7bbe 5749 98be f3dc e43a
000003f0: 4ddf 653d 4309 30bd d7f9 33be 8e61 833e

transformer_encoder.layers.0.linear2.weight f4 [8, 2048]
-0.0367068 -0.028982619 -0.015911177 -0.15525556 0.115723945 -0.14958368 0.11146552 -0.082046956
-0.0077171815 -0.29311463 -0.10033574 -0.03802779 0.041264225 0.0902429 -0.15152428 0.26311564
-0.010864684 -0.046298694 -0.04602775 -0.0065808357 0.2360798 0.23983143 -0.04613239 -0.028257092
-0.12136178 -0.022020265 0.08699213 -0.031950522 0.08170193 0.13936669 -0.21704912 -0.0606791
0.021254515 -0.004340212 0.050957806 -0.1848499 -0.115783475 -0.012139489 0.043378334 -3.9487342e-05
-0.1091116 -0.05830707 -0.04313866 -0.2649103 -0.026278092 -0.05997051 -0.017427232 -0.22627927
0.1191925 0.090053745 -0.102806605 0.0030632564 -0.21337424 0.04630219 0.07409863 0.12064659
0.09414818 0.030630058 -0.093512766 0.03727097 -0.028140724 -0.11135843 0.13944697 0.03244405
0.23082797 0.049131986 0.0014510705 0.022601265 0.2491924 0.053173702 0.07019965 0.14903654
-0.14017278 0.00045519072 -0.032635927 -0.048100226 -0.08511979 -0.049890853 0.26481906 0.100822315
0.110133216 -0.1706328 -0.0006104143 0.033259947 -0.09696396 0.19053753 0.013342016 0.23175752
0.051478516 0.182078 -0.10355248 -0.2300839 -0.20949009 -0.043768883 0.062326305 0.19524896
-0.08092641 -0.107326746 -0.018408816 -0.036954463 0.06502926 0.03587434 -0.009527709 -0.14982982
-0.14484464 0.10807294 -0.079474635 -0.13489288 0.15902634 0.11422566 0.06169803 -0.20808518
-0.13976552 0.12160571 0.20947757 0.019209757 0.021953426 -0.013475346 -0.006407409 -0.05045149
0.04068331 0.18624529 -0.11746541 0.1805592 0.039521407 0.01035893 0.042297833 0.14085773
-0.11450704 0.09681638 0.06641443 -0.033471122 0.24880362 -0.00983665 -0.14007989 0.102704145
0.024491044 -0.2623104 0.053851284 0.07050128 0.19799404 -0.09549893 -0.2873716 -0.13651957
0.16650479 0.17497379 -0.025248243 0.068502955 -0.03695978 0.049383547 -0.0630543 -0.08333807
0.031983778 -0.05545772 -0.14425103 -0.100865014 -0.14310586 -0.16782863 0.3433087 -0.15725729
0.06794533 -0.15057577 0.08877701 -0.09365011 0.33888638 0.13274811 -0.015229825 -0.2836399
0.19934745 -0.007175541 0.027321141 -0.002439864 0.07233999 -0.32699546 -0.0400329 0.25592947
-0.003629272 0.09277092 0.1872607 0.0084032295 0.09019287 0.1440417 -0.18554348 -0.045230918
-0.044108123 0.04433455 0.14346555 -0.109144844 0.1572873 0.06806791 0.07149168 -0.386033
0.023250895 0.122013584 0.43685472 0.05380585 -0.11928365 0.12103922 0.13185418 0.13717853
-0.014933419 -0.16224007 -0.065424174 -0.17430502 -0.045261905 0.26220152 -0.25237656 -0.04628464
0.097684965 -0.21512131 -0.177212 0.18462181 -0.08272778 0.1674443 -0.1747419 -0.022335056
-0.09678515 -0.16717687 0.119873635 -0.060899574 0.0919288 0.008115349 0.11375866 -0.24928623
0.059644658 -0.048188016 0.12772131 -0.041024495 -0.015247343 0.112397015 0.22251259 -0.11685886
-0.052989632 -0.17806831 0.13460594 -0.12678233 -0.06654678 0.19911675 0.24755274 -0.035757333
-0.22210121 -0.06691995 -0.031489946 -0.15629272 -0.1615867 -0.29893312 -0.022898495 -0.17226355
0.21391693 -0.30537653 -0.23033674 -0.092204794 -0.13761604 -0.061384786 0.12905113 0.08983626
00000000: df59 16bd f56c edbc 2858 82bc 50fb 1ebe
00000010: ad00 ed3d 772c 19be 0948 e43d 3c08 a8bd
00000020: 69e0 fcbb 1f13 96be d37c cdbd 07c3 1bbd
00000030: ad04 293d 45d1 b83d 2e29 1bbe 18b7 863e
00000040: ca01 32bc b3a3 3dbd 9887 3cbd 0da4 d7bb
00000050: e7be 713e 5f96 753e 51f5 3cbd 6b7b e7bc
00000060: 868c f8bd d863 b4bc ee28 b23d 8dde 02bd
00000070: 5753 a73d 24b6 0e3e 2042 5ebe a68a 78bd
00000080: f31d ae3c 5638 8ebb 22b9 503d 4b49 3dbe
00000090: e31f edbd b5e4 46bc 7bad 313d 369f 25b8
000000a0: e775 dfbd 65d3 6ebd 2ab2 30bd 53a2 87be
000000b0: 2745 d7bc a3a3 75bd 8ec3 8ebc c1b5 67be
000000c0: 331b f43d 196e b83d 458c d2bd eac0 483b
000000d0: c77e 5abe 5da7 3d3d 06c1 973d 8f15 f73d
000000e0: c3d0 c03d e3eb fa3c 9f83 bfbd 72a9 183d
000000f0: 6087 e6bc e30f e4bd 30cb 0e3e 0de4 043d
00000100: 2b5e 6c3e 9f3e 493d d931 be3a 4a26 b93c
00000110: 4b2c 7f3e abcc 593d d6c4 8f3d 099d 183e
00000120: 7489 0fbe aaa6 ee39 40ad 05bd be04 45bd
00000130: 4953 aebd 5a5a 4cbd 5d96 873e ee7b ce3d
00000140: 868d e13d 5dba 2ebe 3604 20ba 953b 083d
00000150: 0a95 c6bd 451c 433e 7998 5a3c d851 6d3e
00000160: 23db 523d a872 3a3e 5313 d4bd 1d9b 6bbe
00000170: 9284 56be 0047 33bd de49 7f3d 58ef 473e
00000180: bfbc a5bd 20ce dbbd 16ce 96bc 905d 17bd
00000190: 102e 853d f9f0 123d 1c1a 1cbc fd6c 19be
000001a0: 2752 14be 5855 dd3d 99c3 a2bd 5c21 0abe
000001b0: cdd7 223e 25ef e93d 13b7 7c3d 4814 55be
000001c0: b11e 0fbe 6a0c f93d 4a81 563e c85d 9d3c
000001d0: acd7 b33c b3c7 5cbc 3ef5 d1bb 39a6 4ebd
000001e0: 8ba3 263d 16b7 3e3e b491 f0bd 83e4 383e
000001f0: 33e1 213d 80b8 293c 7e40 2d3d 023d 103e
00000200: ab82 eabd ab47 c63d 4a04 883d 0419 09bd
00000210: 60c6 7e3e e729 21bc 1a71 0fbe 8d56 d23d
00000220: 71a1 c83c 8c4d 86be 2a93 5c3d fa62 903d
00000230: f3be 4a3e f194 c3bd 5f22 93be c9cb 0bbe
00000240: 3b80 2a3e 542c 333e 67d5 cebc 474b 8c3d
00000250: 2363 17bd 6746 4a3d 9d22 81bd 26ad aabd
00000260: 6c01 033d a227 63bd 8bb6 13be 5192 cebd
00000270: 588a 12be 45db 2bbe 28c6 af3e 0e08 21be
00000280: ec26 8b3d 8930 1abe b9d0 b53d a1cb bfbd
00000290: 8482 ad3e 1fef 073e 8486 79bc 4039 91be
000002a0: bd21 4c3e cd20 ebbb 96d0 df3c 20e6 1fbb
000002b0: fd26 943d f36b a7be 8af9 23bd 3009 833e
000002c0: 15d9 6dbb aefe bd3d 45c1 3f3e b3ad 093c
000002d0: 0ab7 b83d ab7f 133e 1cff 3dbe 0e44 39bd
000002e0: b8aa 34bd 2598 353d a2e8 123e 5587 dfbd
000002f0: ec0f 213e 3067 8b3d 3b6a 923d 1ea6 c5be
00000300: a978 be3c 42e2 f93d 6cab df3e 8663 5c3d
00000310: fc4a f4bd 69e3 f73d c804 073e 8778 0c3e
00000320: 4dab 74bc 4322 26be 1cfd 85bd 047d 32be
00000330: 8c64 39bd 473f 863e 8037 81be f694 3dbd
00000340: 0e0f c83d c348 5cbe 1077 35be 800d 3d3e
00000350: 2f6d a9bd 8576 2b3e 8aef 32be 02f8 b6bc
00000360: 4b37 c6bd 6a30 2bbe 4f80 f53d d571 79bd
00000370: 2b45 bc3d 3ef6 043c 4dfa e83d e444 7fbe
00000380: f54d 743d cc60 45bd 60c9 023e 4d09 28bd
00000390: fecf 79bc 6830 e63d 57da 633e b353 efbd
000003a0: a80b 59bd 8a57 36be 24d6 093e 3ad3 01be
000003b0: ae49 88bd 43e5 4b3e 777e 7d3e 4876 12bd
000003c0: 806e 63be 540d 89bd 9afb 00bd 330b 20be
000003d0: fc76 25be c30d 99be a095 bbbc db65 30be
000003e0: 0a0d 5b3e 505a 9cbe 65dd 6bbe ded5 bcbd
000003f0: 38eb 0cbe 9d6e 7bbd fb25 043e 13fc b73d

transformer_encoder.layers.0.linear2.bias f4 [8]
0.020811167 -0.15378182 0.14313307 -0.025437789 -0.16289914 -0.006722293 -0.14756352 0.06653357
00000000: 2e7c aa3c fb78 1dbe 7a91 123e e962 d0bc
00000010: 08cf 26be ae46 dcbb e41a 17be c142 883d

transformer_encoder.layers.0.norm1.weight f4 [8]
0.8673071 1.0043181 1.0380982 1.0753194 1.2840309 1.0093211 0.95308083 0.94851094
00000000: d707 5e3f 7f8d 803f 67e0 843f 11a4 893f
00000010: 205b a43f 6f31 813f 1bfd 733f 9dd1 723f

transformer_encoder.layers.0.norm1.bias f4 [8]
0.29248977 -0.29403093 0.023287429 0.17492892 -0.4126076 0.18716891 -0.26424244 0.09075305
00000000: 38c1 953e 398b 96be 47c5 be3c 9120 333e
00000010: 4e41 d3be 35a9 3f3e c94a 87be bcdc b93d

transformer_encoder.layers.0.norm2.weight f4 [8]
0.69602907 0.022982718 0.14802334 0.7052454 0.032922152 0.80743915 0.03059059 0.108959556
00000000: f62e 323f 4146 bc3c 6e93 173e f68a 343f
00000010: 61d9 063d 55b4 4e3f 1e99 fa3c 3026 df3d

transformer_encoder.layers.0.norm2.bias f4 [8]
-0.10686535 0.019874796 -0.19607787 -0.13478284 0.041066542 -0.07375732 0.040670183 -0.14547588
00000000: 38dc dabd 78d0 a23c a3c8 48be 8304 0abe
00000010: 6435 283d 140e 97bd c795 263d a1f7 14be

decoder.weight f4 [1, 8]
0.08777958 0.006867264 0.0030169468 0.07634142 6.6678855e-05 -0.14267819 -0.0034394548 0.0013630044
00000000: c8c5 b33d c906 e13b f8b7 453b e458 9c3d
00000010: f0d5 8b38 3b1a 12be 7a68 61bb d7a6 b23a
