models/stock_transformer.pt (torch, 311157 bytes, 15 tensors)

weight f4 [8, 6]
-0.06792822 0.01730024 -0.054859307 0.043194015 -0.020722019 0.08748305 -0.06338122 0.006069814
0.067831375 -0.0014861983 -0.035537496 0.009034332 0.35842013 0.20119637 0.13350137 0.4847088
-0.0043441774 0.0836033 0.0041754106 0.025383422 -0.11241571 0.029395202 -0.00036684147 -0.07290313
-0.22678185 0.11213901 -0.39380732 -0.3847732 0.022380238 -0.029056478 -0.31486297 0.109457314
0.6040504 -0.032666102 -0.05513142 0.2864236 -0.022607563 -0.13332996 0.0026700427 -0.064059526
-0.054243837 0.7225459 0.5892008 -0.027668519 0.0727749 -0.27401456 0.1467174 -0.063831165
00000000: f31d 8bbd 3cb9 8d3c 27b4 60bd 35ec 303d
00000010: 39c1 a9bc 502a b33d 03ce 81bd 4ae5 c63b
00000020: 2deb 8a3d 8acc c2ba c48f 11bd bc04 143c
00000030: d882 b73e 6c06 4e3e 95b4 083e c02b f83e
00000040: 9a59 8ebb 3538 ab3d e2d1 883b e5f0 cf3c
00000050: 353a e6bd 35ce f03c a154 c0b9 3c4e 95bd
00000060: 8039 68be 23a9 e53d 1da1 c9be fe00 c5be
00000070: c356 b73c da07 eebc b835 a1be 282b e03d
00000080: 0ca3 1a3f e4cc 05bd 7cd1 61bd 1da6 923e
00000090: 7f33 b9bc a687 08be e2fb 2e3b a431 83bd
000000a0: c92e 5ebd c5f8 383f ddd5 163f 17a9 e2bc
000000b0: 020b 953d a34b 8cbe 163d 163e eab9 82bd

bias f4 [8]
0.054837316 -0.08448453 -0.38397384 0.024217442 -0.24434955 -0.24940139 -0.20433798 -0.51158375
00000000: 189d 603d 3a06 adbd 3898 c4be a863 c63c
00000010: c536 7abe 1463 7fbe fa3d 51be 27f7 02bf

in_proj_weight f4 [24, 8]
-0.35493472 0.97526056 0.122788355 -0.9031477 0.52977204 -0.41240716 0.21860963 0.28921482
-1.1335676 0.21801756 0.05560021 1.3732933 -0.09652375 0.07102309 0.16626501 -0.16194169
0.71584135 1.6484765 0.31013826 0.7531703 0.25215223 -0.27626437 0.1935589 0.25178945
-1.2538662 0.4464214 -0.05114002 -0.4680671 0.13045783 0.48129287 0.18438344 0.037850026
-1.5155928 0.21454899 -0.48988163 1.5486687 -0.41699725 0.12494921 0.17524058 -0.0021218655
-1.4808483 0.57260245 0.36842367 -1.2350315 0.296864 0.18862768 -0.14686674 0.26631343
-0.63832515 -2.1547475 0.19551654 0.10975013 0.31139407 0.100044966 0.4354222 0.035262886
-0.38034958 -0.1661665 -0.7413567 -0.9257943 0.019007983 -0.41818714 -0.15666834 -0.27055287
0.6590502 0.8885202 -0.074569255 -0.756539 0.4574194 -0.29590574 0.1549176 0.38262284
-0.35150945 1.178191 0.25091338 1.2956488 0.14204593 0.0853362 0.23560588 0.0802561
1.6155138 0.16239399 0.20585942 0.49188343 0.012981969 -0.30062324 -0.30927187 0.21005143
-0.466872 1.3868686 -0.110380694 -0.47822028 -0.08180417 0.15887554 -0.15042347 0.17146608
-0.7890264 1.6311622 -0.13674136 1.353444 -0.088201545 -0.037051912 0.3006617 -0.005166899
-0.48979634 1.8387305 0.12521607 -1.1798527 0.030372355 0.005087736 -0.21560742 0.16299929
-2.414912 -0.7598438 0.17586745 0.04652054 0.02364952 -0.26472667 -0.19802317 0.33887735
-0.3162553 0.32828382 -0.6959208 -0.61584693 0.1546403 -0.18561754 0.37112877 0.1771044
-0.08997466 0.0076926765 0.17633289 0.061561525 0.10099259 -0.15158243 0.63650936 0.7160505
0.20743059 0.1815294 0.38626423 0.06680048 -0.43880126 0.05146751 0.0030256743 0.7134449
-0.27797088 -0.5962805 -0.3144039 -0.017390046 0.04587151 -0.27433202 0.056682147 0.10698035
-0.36884254 0.25279963 -0.16517037 0.14990489 0.30671784 0.28114265 -0.6734771 -0.15128134
-0.2497298 -0.3560672 -0.7071113 -0.15499075 0.49789503 -0.17493677 -0.5490259 -0.14274015
-0.060108628 0.01118634 0.017981242 -0.29813832 0.30092555 0.27882385 -0.114950575 0.3393469
0.18565676 -0.03316583 -0.094691485 0.6726226 0.24604514 -0.26099342 -1.2708879 -0.5579452
-0.6091523 -0.28866068 0.2031835 0.22059174 -0.63928246 -0.16766138 0.20852682 0.021316877
00000000: 01ba b5be adaa 793f 7678 fb3d b034 67bf
00000010: 249f 073f 0827 d3be 34db 5f3e f713 943e
00000020: be18 91bf ff3f 5f3e 0cbd 633d 13c8 af3f
00000030: 3eae c5bd 8e74 913d 6041 2a3e 0bd4 25be
00000040: 6141 373f 4701 d33f 71ca 9e3e c5cf 403f
00000050: 191a 813e 8672 8dbe 4e34 463e 8cea 803e
00000060: b07e a0bf 5991 e43e 3378 51bd 7ea6 efbe
00000070: bd96 053e 056c f63e 03cf 3c3e a108 1b3d
00000080: f2fe c1bf bbb2 5b3e c4d1 fabe c73a c63f
00000090: aa80 d5be 5fe5 ff3d 4472 333e ff0e 0bbb
000000a0: 708c bdbf 1396 123f 07a2 bc3e 8315 9ebf
000000b0: 8ffe 973e 9d27 413e 3c64 16be 3c5a 883e
000000c0: 4769 23bf 62e7 09c0 7d35 483e adc4 e03d
000000d0: 0b6f 9f3e 60e4 cc3d a9ef de3e d16f 103d
000000e0: 2ebd c2be 8d27 2abe 8dc9 3dbf db00 6dbf
000000f0: a1b6 9b3c a01c d6be aa6d 20be e885 8abe
00000100: 84b7 283f 0f76 633f c4b7 98bd 8aac 41bf
00000110: e032 ea3e f580 97be b8a2 1e3e 24e7 c33e
00000120: 0cf9 b3be f6ce 963f b877 803e d2d7 a53f
00000130: 7d74 113e bfc4 ae3d ab42 713e 4f5d a43d
00000140: 28c9 ce3f 9c4a 263e d0cc 523e 25d8 fb3e
00000150: 53b2 543c 4aeb 99be e258 9ebe b917 573e
00000160: d909 efbe e984 b13f 460f e2bd 4ad9 f4be
00000170: f288 a7bd 45b0 223e 9c08 1abe ce94 2f3e
00000180: a2fd 49bf ecc9 d03f ed05 0cbe a73d ad3f
00000190: 03a3 b4bd bfc3 17bd 55f0 993e 174f a9bb
000001a0: 96c6 fabe 855b eb3f a438 003e 6a05 97bf
000001b0: 72cf f83c 06b7 a63b 31c8 5cbe 49e9 263e
000001c0: eb8d 1ac0 2085 42bf 9916 343e 528c 3e3d
000001d0: a3bc c13c 418a 87be 96c6 4abe 5581 ad3e
000001e0: 37ec a1be d114 a83e de27 32bf 25a8 1dbf
000001f0: 075a 1e3e 8612 3ebe 9704 be3e db5a 353e
00000200: a244 b8bd d912 fc3b 9c90 343e f027 7c3d
00000210: 34d5 ce3d 6d38 1bbe 47f2 223f 164f 373f
00000220: af68 543e d8e2 393e 6dc4 c53e b1ce 883d
00000230: 8faa e0be 99cf 523d 644a 463b 53a4 363f
00000240: 3352 8ebe d7a5 18bf 8cf9 a0be 9275 8ebc
00000250: c4e3 3b3d 3f75 8cbe 8a2b 683d 8418 db3d
00000260: eed8 bcbe f46e 813e 6c22 29be ab80 193e
00000270: 1f0a 9d3e eef1 8f3e ff68 2cbf 7fe9 1abe
00000280: 2bb9 7fbe 714e b6be 3f05 35bf e5b5 1ebe
00000290: 19ec fe3e a022 33be f68c 0cbf 792a 12be
000002a0: 7734 76bd e946 373c 664d 933c 96a5 98be
000002b0: ea12 9a3e 00c2 8e3e 356b ebbd e0be ad3e
000002c0: ce1c 3e3e e5d8 07bd 9ced c1bd ff30 2c3f
000002d0: 42f3 7b3e eea0 85be 74ac a2bf 7fd5 0ebf
000002e0: 68f1 1bbf 55cb 93be 560f 503e cde2 613e
000002f0: 04a8 23bf 6daf 2bbe 0e88 553e bba0 ae3c

in_proj_bias f4 [24]
0.07859787 0.10997113 0.20052019 -0.11814786 -0.08670337 -0.02562693 -0.09747226 0.17284885
4.0894272e-05 1.8589353e-05 2.3771008e-05 0.0003311966 -0.00028833878 5.497324e-05 -0.00014260331 0.00045887625
0.0735384 0.3694997 -0.3190053 0.22233793 0.06291017 0.45574155 -0.004398255 -0.39141402
00000000: ecf7 a03d 8b38 e13d 2a55 4d3e 81f7 f1bd
00000010: 8991 b1bd 91ef d1bc 899f c7bd 4aff 303e
00000020: e485 2b38 55f0 9b37 da67 c737 75a4 ad39
00000030: 2d2c 97b9 1193 6638 c987 15b9 5495 f039
00000040: 4d9b 963d 112f bd3e aa54 a3be 8eac 633e
00000050: 0cd7 803d f556 e93e 3d1f 90bb 6b67 c8be

weight f4 [8, 8]
0.33344176 0.6102062 -0.65563786 0.20573509 -0.6357182 0.36433324 -0.6451831 -0.13462232
-0.28554168 -0.48837495 0.08252919 0.15000226 0.41840056 -0.23523854 0.49795583 0.5172085
-0.22165312 -0.4824968 0.26134267 0.2981854 -0.33519477 0.3437534 0.44332093 0.0909311
0.16373953 0.08856742 -0.3096862 -0.17962733 -0.5407923 0.20898627 -0.35067922 -0.072555736
0.15170936 0.0066530746 0.358565 -0.37634918 -0.37402442 -0.080204844 -0.36175823 0.15088932
-0.0031628255 0.34976643 0.05744469 0.23314567 0.50865763 0.36704442 -0.12157101 -0.30910712
0.38662574 0.07129528 0.20628898 -0.34332037 -0.61706257 -0.036576748 -0.4075762 0.55765396
-0.24292643 -0.05023089 -0.24054524 0.34478888 0.58546823 0.034343872 0.48670498 -0.59509027
00000000: e1b8 aa3e 7936 1c3f e2d7 27bf 38ac 523e
00000010: 6ebe 22bf e389 ba3e b82a 25bf 6fda 09be
00000020: 8532 92be 480c fabe 1005 a93d 319a 193e
00000030: 9938 d63e 5fe2 70be 11f4 fe3e c767 043f
00000040: 09f9 62be d209 f7be b5ce 853e c2ab 983e
00000050: a69e abbe 7200 b03e f6fa e23e 163a ba3d
00000060: 56ab 273e d662 b53d 318f 9ebe 3af0 37be
00000070: 5d71 0abf 7f00 563e 3a8c b3be 1a98 94bd
00000080: b359 1b3e 0902 da3b d595 b73e d7b0 c0be
00000090: 2180 bfbe 7042 a4bd 6038 b9be bb82 1a3e
000000a0: 6847 4fbb 9614 b33e 204b 6b3d bdbd 6e3e
000000b0: 6337 023f 3fed bb3e 39fa f8bd 4a43 9ebe
000000c0: cff3 c53e 4203 923d 6b3d 533e b0c7 afbe
000000d0: d0f7 1dbf 80d1 15bd d4ad d0be 69c2 0e3f
000000e0: b5c1 78be e8be 4dbd 7e51 76be 2b88 b03e
000000f0: 3fe1 153f 29ac 0c3d 6531 f93e d657 18bf

bias f4 [8]
0.45437253 -0.44108847 -0.0060998425 0.20106646 -0.124906994 0.45039135 -0.23173799 0.35648763
00000000: 84a3 e83e 59d6 e1be 30e1 c7bb 5ee4 4d3e
00000010: 3dcf ffbd b299 e63e b94c 6dbe 8c85 b63e

weight f4 [2048, 8]
-0.0051613236 -0.20758614 -0.2170565 -0.09756488 -0.19790493 0.12709016 -0.3190896 0.12131223
0.32123625 -0.14177142 0.045882236 -0.28255865 0.078546226 0.08959193 -0.08241253 0.4767955
-0.32218245 0.045218386 -0.25954592 -0.07768451 0.22745036 -0.005127826 -0.124535546 -0.07776467
-0.030107163 0.32915726 -0.1171936 -0.0478581 0.2759933 0.36968264 -0.05442714 -0.39105812
-0.19103919 -0.51495975 -0.28810403 0.033063762 -0.038271323 -0.3819279 -0.30178675 0.014835646
0.07292176 0.22621927 0.39320448 -0.35669822 0.38412997 0.13288233 -0.097465396 0.041794803
0.20232113 0.018226204 -0.51005274 -0.07660437 -0.11129205 0.19190612 0.034960262 -0.15501978
-0.08211124 -0.22525977 0.036186688 0.38915434 -0.1505631 0.13767381 -0.11102158 0.06990798
0.08589582 -0.43039966 0.14446941 0.59876096 -0.58125687 0.5881457 0.13305844 0.0029971353
-0.02114953 0.3139241 -0.5552922 -0.18875057 -0.052703883 -0.1342273 -0.30851284 -0.6838638
0.16425295 0.060481753 0.030907055 0.143627 0.016284226 -0.48753452 -0.20351018 -0.09038416
0.068935335 0.24536812 0.18405871 -0.03236567 0.25553566 0.26570937 0.3435085 -0.1990403
-0.060080353 0.37668824 0.1985738 -0.21672253 0.053224925 -0.35176608 0.28415868 -0.13723585
-0.29385236 0.084076606 0.2892302 0.0025511587 0.093140624 -0.204306 0.21902287 0.07083148
0.27160355 0.34149918 -0.18645702 -0.28471678 0.06371318 0.08632432 0.22628239 -0.2676978
0.12966074 -0.29065433 -0.2331446 -0.23248081 0.6030986 0.08947659 -0.006699717 -0.43174958
-0.04568679 -0.028574789 -0.15336047 0.14980549 -0.040306494 0.2435576 -0.22591974 0.15027167
0.23192245 0.25422123 -0.40618715 -0.25436157 -0.011864596 0.32420364 0.078818955 0.35951674
0.17283607 0.10889 -0.3958394 -0.113918014 -0.23060933 0.1737924 0.040424738 0.32323596
-0.46146673 0.071149595 0.10897387 -0.2983408 -0.08306729 -0.55997324 0.42363486 -0.2578608
0.1389573 -0.09546259 -0.41330925 -0.34585264 -0.24598214 -0.23412932 0.47967377 -0.31268433
0.24655196 0.5253562 -0.68061405 -0.44138613 -0.09713898 0.23765828 0.20143391 0.05261081
0.065238535 0.34084702 -0.10397592 -0.062445495 -0.06569889 0.20805018 0.055011783 0.1269795
-0.22070038 0.02703832 -0.040236536 0.15221593 0.35151947 -0.31951165 -0.22173548 0.038179137
-0.39192134 0.4985987 0.15754852 -0.046886053 -0.1761818 0.11600348 0.04232911 0.056444664
-0.085078344 0.29137284 -0.43241146 0.1512343 -0.34435648 0.050795995 0.25875658 -0.14078137
-0.1441954 0.026777694 0.1398573 0.1054252 0.2312521 -0.14799862 -0.011092635 -0.16397938
-0.14603403 -0.27630976 -0.17508842 0.31702137 -0.116261 0.2737191 -0.18093285 0.0906366
-0.22778918 -0.061211832 -0.02693482 0.010761048 0.052523535 -0.24376878 0.19390434 -0.35034052
-0.061205313 -0.11707228 -0.2316131 -0.16619958 0.16414209 -0.49669668 -0.00053909497 -0.22177842
-0.116210975 0.110501684 -0.32013234 0.2044658 -0.26891175 -0.365331 0.33244863 0.22432531
-0.27172634 -0.33039057 0.11640049 -0.08241047 -0.22260007 0.30804545 0.31765473 -0.20308085
00000000: 5220 a9bb 7691 54be 0f44 5ebe 19d0 c7bd
00000010: 97a7 4abe ec23 023e b65f a3be 8c72 f83d
00000020: 1479 a43e 872c 11be 03ef 3b3d 87ab 90be
00000030: d8dc a03d f97b b73d e7c7 a8bd 8a1e f43e
00000040: 19f5 a4be ea36 393d 34e3 84be 0e19 9fbd
00000050: bfe8 683e 5207 a8bb 7e0c ffbd 1543 9fbd
00000060: 4ca3 f6bc 4d87 a83e 3303 f0bd db06 44bd
00000070: fe4e 8d3e 0b47 bd3e feee 5ebd c538 c8be
00000080: c79f 43be 67d4 03bf 5f82 93be de6d 073d
00000090: 64c2 1cbd 0e8c c3be cb83 9abe 3611 733c
000000a0: 0158 953d 06a6 673e 1952 c93e 26a1 b6be
000000b0: afac c43e 4e12 083e f09b c7bd 0731 2b3d
000000c0: 452d 4f3e 1f4f 953c d192 02bf c0e2 9cbd
000000d0: 16ed e3bd 0a83 443e 7e32 0f3d 81bd 1ebe
000000e0: f029 a8bd 7faa 66be 7e38 143d 3d3f c73e
000000f0: 372d 1abe 5dfa 0c3e 485f e3bd ea2b 8f3d
00000100: 26ea af3d 585d dcbe caef 133e 6648 193f
00000110: 40cd 14bf b790 163f 7940 083e 966b 443b
00000120: c741 adbc a9ba a03e a127 0ebf d447 41be
00000130: 07e0 57bd e272 09be 65f5 9dbe b311 2fbf
00000140: ed31 283e b7bb 773d cb30 fd3c f512 133e
00000150: 7f66 853c 209e f9be f964 50be 551b b9bd
00000160: f82d 8d3d c841 7b3e e379 3c3e dd91 04bd
00000170: 92d5 823e 0f0b 883e 59e0 af3e 38d1 4bbe
00000180: d116 76bd 48dd c03e ee56 4b3e 83ec 5dbe
00000190: 6102 5a3d af1a b4be 3f7d 913e 8e87 0cbe
000001a0: d173 96be 5b30 ac3d fb15 943e 5731 273b
000001b0: 83c0 be3d 9835 51be 8847 603e 1810 913d
000001c0: 9f0f 8b3e fbd8 ae3e 97ee 3ebe 66c6 91be
000001d0: 0e7c 823d ceca b03d 92b6 673e b00f 89be
000001e0: c9c5 043e a5d0 94be 75bd 6ebe 730f 6ebe
000001f0: ab64 1a3f 813f b73d 4d89 dbbb 480e ddbe
00000200: 1222 3bbd ad15 eabc 870a 1dbe 9c66 193e
00000210: 6c18 25bd 2a67 793e 8157 67be d1e0 193e
00000220: 147d 6d3e 4929 823e c3f7 cfbe ae3b 82be
00000230: b963 42bc 05fe a53e d56b a13d 9412 b83e
00000240: f0fb 303e b801 df3d 76ab cabe d94d e9bd
00000250: da24 6cbe a3f6 313e 6994 253d 2f7f a53e
00000260: 5e45 ecbe e1b6 913d b12d df3d 20c0 98be
00000270: 2f1f aabd 685a 0fbf abe6 d83e 5506 84be
00000280: d34a 0e3e e481 c3bd 459d d3be 9913 b1be
00000290: bee2 7bbe 99bf 6fbe cd97 f53e 2918 a0be
000002a0: 1e78 7c3e be7d 063f b93c 2ebf 5dfd e1be
000002b0: cdf0 c6bd b15c 733e b144 4e3e 6f7e 573d
000002c0: c89b 853d 8083 ae3e 54f1 d4bd d9c6 7fbd
000002d0: 248d 86bd 1b0b 553e 0954 613d ea06 023e
000002e0: 48ff 61be 787f dd3c 11cf 24bd 7ede 1b3e
000002f0: 5cfa b33e 0897 a3be a00e 63be ba61 1c3d
00000300: eaa9 c8be 5448 ff3e 6654 213e 970b 40bd
00000310: 0069 34be 3c93 ed3d 4a61 2d3d 8532 673d
00000320: 8e3d aebd d22e 953e 0965 ddbe 2add 1a3e
00000330: 7e4f b0be 760f 503d be7b 843e fe28 10be
00000340: f5a7 13be e55c db3c c136 0f3e 2be9 d73d
00000350: 5acd 6c3e f38c 17be e2bd 35bc 36ea 27be
00000360: f289 15be 7978 8dbe 614a 33be a050 a23e
00000370: 3f1a eebd e924 8c3e 7646 39be af9f b93d
00000380: 9141 69be 42b9 7abd 69a6 dcbc 1b4f 303c
00000390: eb22 573d 869e 79be dc8e 463e d55f b3be
000003a0: 6cb2 7abd 97c3 efbd fc2b 6dbe 3930 2abe
000003b0: dd14 283e 074f febe 0d52 0dba e219 63be
000003c0: 0500 eebd b54e e23d 63e8 a3be 7c5f 513e
000003d0: cdae 89be aa0c bbbe b536 aa3e 89b5 653e
000003e0: b71f 8bbe f428 a9be 6163 ee3d d2c6 a8bd
000003f0: 46f1 63be 22b8 9d3e a4a3 a23e 6df4 4fbe

bias f4 [2048]
0.28935072 0.037350934 -0.26495332 -0.14423704 0.17756107 0.10903617 -0.058313206 0.26402515
0.16275094 -0.16978008 -0.19399603 0.054829422 -0.37686935 -0.38379535 -0.03253296 -0.3626825
0.18360865 0.135049 -0.15366751 0.1511335 0.24705394 -0.2218248 0.03211884 -0.06525001
0.17029184 -0.34552494 -0.1225751 0.10150735 0.015673546 -0.059943356 -0.33616528 -0.28327233
-0.017634599 0.41497573 -0.36863944 -0.24474315 -0.09352186 0.45895365 -0.17072415 0.008996344
0.05566474 -0.29714686 0.3368918 -0.3332234 -0.4718421 -0.24280456 0.051824972 0.14911471
0.21962935 0.11891187 -0.32583842 0.080998965 0.01473822 -0.05999696 -0.01958777 -0.36991546
0.43261302 -0.018102776 -0.21221243 0.24784105 -0.13373937 0.1441413 -0.025758866 0.10345938
-0.22280239 -0.32346264 -0.16355325 -0.062411696 -0.4643452 -0.22887045 -0.42065287 -0.22374988
0.023374781 0.46179438 -0.03811522 -0.010000403 0.117588 -0.11174958 -0.22943 -0.02924515
0.01462548 -0.0054243137 -0.115435034 0.020444596 0.12151388 0.18694456 -0.01738951 0.22451672
0.3775699 0.12997313 -0.35586083 -0.36709794 -0.13183576 -0.06304571 0.30955517 -0.25135797
-0.35747987 -0.3133497 0.05417504 -0.2470186 0.08381676 0.2970284 -0.4373199 -0.3415891
0.25282258 0.20233212 0.23973931 0.27005753 -0.3873761 -0.18567543 0.23969945 -0.033399582
0.09431884 0.09186597 -0.23120964 0.17912595 -0.15960176 0.24665613 -0.09022058 0.18860932
-0.4414926 -0.009644317 -0.069397666 0.33809796 -0.1994825 -0.13735615 -0.15844575 0.12822099
-0.39486015 0.1928354 -0.32174322 -0.021815356 -0.012343581 0.33669576 -0.36260626 0.28204367
-0.10705027 0.23284797 0.16756442 0.15888642 -0.32459694 -0.2565405 0.14813206 -0.241708
-0.15502654 0.34014437 0.0171027 0.27884883 0.40613332 -0.2573854 -0.077306606 0.02230286
-0.092098944 -0.1243729 -0.2238254 -0.42002282 0.011844126 -0.08812169 -0.36479166 -0.28567928
0.3558885 -0.083451785 -0.056878798 -0.0155716995 -0.43861604 -0.09048117 -0.26392293 -0.16928175
0.028738381 -0.08950486 -0.4184736 -0.22788098 0.09639639 -0.23898399 0.060961995 -0.26728293
0.040464118 -0.06985908 -0.13074487 -0.34880495 -0.03184286 -0.41665486 -0.025533846 -0.041835308
-0.225534 -0.04879127 0.16297035 -0.29495487 -0.31832394 -0.1373276 0.21224344 -0.038213756
0.16710962 -0.0056581614 -0.5319606 0.23769733 -0.015299254 -0.37796295 -0.17746913 -0.41910005
-0.09669959 0.040937867 -0.09694203 -0.4372852 -0.34835052 -0.5115655 -0.30564713 -0.31102318
-0.1565414 -0.012820127 -0.1524106 -0.29005605 -0.21037301 -0.36347878 -0.39224538 -0.43313053
-0.28707483 -0.07647624 -0.3653355 -0.0015918595 0.26934806 0.10241849 0.118972726 -0.39905494
0.123635665 -0.53172874 -0.15782343 -0.004910111 -0.29450396 -0.015906144 -0.4320814 0.16322073
-0.005058246 0.03442569 0.012558316 -0.07505803 0.26687935 0.038825244 -0.28887364 -0.36600316
0.19917496 0.0020413618 -0.096605234 0.058103498 -0.24454454 -0.48932818 -0.25225118 -0.26352715
0.03866975 -0.29151276 -0.30426645 -0.004893081 0.054393686 -0.04339894 -0.1654221 0.24394752
00000000: c725 943e 4bfd 183d f6a7 87be e0b2 13be
00000010: 92d2 353e 5b4e df3d d4d9 6ebd 4e2e 873e
00000020: 2fa8 263e d4da 2dbe e5a6 46be d194 603d
00000030: 05f5 c0be d380 c4be 4841 05bd 85b1 b9be
00000040: e803 3c3e 494a 0a3e 045b 1dbe bdc2 1a3e
00000050: b5fb 7c3e 0a26 63be 0b8f 033d cca1 85bd
00000060: fc60 2e3e a5e8 b0be a708 fbbd 16e3 cf3d
00000070: cf65 803c 2a87 75bd db1d acbe 1209 91be
00000080: 6f76 90bc b377 d43e 4fbe bcbe f39d 7abe
00000090: 6488 bfbd f9fb ea3e 50d2 2ebe 6765 133c
000000a0: b600 643d a223 98be 157d ac3e 429c aabe
000000b0: 4a95 f1be c2a1 78be 6c46 543d 87b1 183e
000000c0: 84e6 603e 1188 f33d 4bd4 a6be c9e2 a53d
000000d0: 9378 713c 5fbf 75bd 8876 a0bc 8f65 bdbe
000000e0: 747f dd3e 464c 94bc 374e 59be 0bca 7d3e
000000f0: f9f2 08be c799 133e 4204 d3bc 83e2 d33d
00000100: 4f26 64be e59c a5be 817a 27be 68a3 7fbd
00000110: a7be edbe 045d 6abe d05f d7be b01e 65be
00000120: 787c bf3c 5070 ec3e b41e 1cbd bbd8 23bc
00000130: fad1 f03d f7dc e4bd b3ef 6abe 8693 efbc
00000140: b69f 6f3c 71be b1bb 3469 ecbd 6d7b a73c
00000150: 45dc f83d 656e 3f3e 7274 8ebc b6e7 653e
00000160: d850 c13e ad17 053e 6433 b6be 43f4 bbbe
00000170: f4ff 06be 1c1e 81bd 047e 9e3e feb1 80be
00000180: 9a07 b7be 5f6f a0be a6e6 5d3d 72f2 7cbe
00000190: 1fa8 ab3d 1b14 983e 65e8 dfbe c4e4 aebe
000001a0: f671 813e 2730 4f3e 397e 753e fb44 8a3e
000001b0: 2956 c6be b321 3ebe c673 753e 00ce 08bd
000001c0: 3c2a c13d 3a24 bc3d 38c2 6cbe cb6c 373e
000001d0: a56e 23be 6d93 7c3e 91c5 b8bd cd22 413e
000001e0: 510b e2be 3303 1ebc 5d20 8ebd 2d1b ad3e
000001f0: 2445 4cbe 17a7 0cbe 9a3f 22be 5d4c 033e
00000200: 1c2b cabe a576 453e 87bb a4be 1eb6 b2bc
00000210: bb3c 4abc 6363 ac3e 87a7 b9be 0768 903e
00000220: 2c3d dbbd b36f 6e3e 0296 2b3e 1fb3 223e
00000230: 9231 a6be 4759 83be eeaf 173e 4d82 77be
00000240: 47bf 1ebe 6727 ae3e f61a 8c3c 46c5 8e3e
00000250: b5f0 cf3e 05c8 83be ed52 9ebd 7db4 b63c
00000260: 5f9e bcbd 38b7 febd 7c32 65be 3b0d d7be
00000270: dd0d 423c 2579 b4bd f9c5 babe 8e44 92be
00000280: 0437 b63e c5e8 aabd bef9 68bd 7120 7fbc
00000290: 4892 e0be 314e b9bd e820 87be 3258 2dbe
000002a0: c16c eb3c 534e b7bd 2c42 d6be a259 69be
000002b0: 786b c53d 38b8 74be 49b3 793d 4fd9 88be
000002c0: b4bd 253d 4712 8fbd fce1 05be 9096 b2be
000002d0: a96d 02bd c953 d5be 5b2c d1bc 805b 2bbd
000002e0: 63f2 66be 5bd9 47bd b3e1 263e 5304 97be
000002f0: 5bfb a2be 9b9f 0cbe 5856 593e 0786 1cbd
00000300: c91e 2b3e 1968 b9bb 922e 08bf ee66 733e
00000310: b9a9 7abc 5c84 c1be 78ba 35be 4894 d6be
00000320: 6f0a c6bd 77ae 273d 8b89 c6bd d9e3 dfbe
00000330: 005b b2be f5f5 02bf c87d 9cbe 6e3e 9fbe
00000340: 644c 20be 830b 52bc 8611 1cbe 3a82 94be
00000350: 066c 57be e419 babe 63d4 c8be 49c3 ddbe
00000360: 79fb 92be 939f 9cbd 410d bbbe f1a5 d0ba
00000370: fde7 893e c9c0 d13d f9a7 f33d ee50 ccbe
00000380: b234 fd3d 601f 08bf 779c 21be ffe4 a0bb
00000390: 39c9 96be 9a4d 82bc c639 ddbe 5623 273e
000003a0: a5bf a5bb f401 0d3d 65c1 4d3c 06b8 99bd
000003b0: 69a4 883e 3807 1f3d 3fe7 93be c464 bbbe
000003c0: 85f4 4b3e 5ec8 053b f7d8 c5bd effd 6d3d
000003d0: e269 7abe 3989 fabe 1127 81be 08ed 86be
000003e0: 2c64 1e3d 2941 95be d0c8 9bbe 2356 a0bb
000003f0: eacb 5e3d 16c3 31bd 6964 29be 61cd 793e

weight f4 [8, 2048]
-0.036210895 -0.026545223 -0.011158154 -0.11116823 0.09048049 -0.10229579 0.083327904 -0.052697383
0.0075202473 -0.24919489 -0.1718054 0.020788912 -0.024659203 0.07161843 -0.118754715 0.20688857
-0.019541383 -0.056495868 -0.030075617 -0.034545053 0.15877126 0.20702982 -0.03139944 0.025676427
-0.10328207 -0.025223183 0.012229716 -0.010163619 0.076943584 0.104627974 -0.17139256 -0.02563989
-0.0019281525 0.028205562 0.05009714 -0.19921118 -0.077421285 -0.0028735893 0.06591091 -0.014390007
-0.09728691 -0.09427809 -0.010418048 -0.29904044 -0.004027541 -0.11856567 0.0053956974 -0.21328963
0.09290052 0.05611865 -0.1270029 0.00887027 -0.19506407 0.028364915 0.01810408 0.1167424
0.10893465 0.03007542 -0.087114945 0.0481809 0.052190892 -0.10500274 0.127798 0.055690266
0.1700304 0.06049917 -0.026278256 -0.08139909 0.2432271 0.093637414 0.09267628 0.10608263
-0.11504786 0.017670307 0.009594065 -0.036185775 -0.07924757 -0.03804365 0.21878752 0.06983179
0.041847855 -0.13615695 0.02475994 0.026366873 -0.050655372 0.19793344 -0.0080826795 0.22672048
0.030887727 0.14695314 -0.106772706 -0.18704762 -0.17738308 0.01589941 -0.016422851 0.16122463
-0.07684835 -0.06525713 -0.016903916 -0.041270886 0.041436188 0.012223158 -0.007959312 -0.11238786
-0.14386232 0.09726464 -0.09138981 -0.09915307 0.15656121 0.008074277 0.071561225 -0.14454868
-0.08596133 0.12349327 0.17603749 0.043029048 0.049200892 -0.006705252 -0.020916333 -0.033112563
0.049333256 0.16126122 -0.14902383 0.071930654 0.021134945 -0.002165989 0.04728037 0.12540078
-0.14712757 0.04747826 0.06609797 -0.0047768285 0.25768235 0.019944318 -0.063405424 0.088095345
0.040490665 -0.22438532 0.04037204 0.05390317 0.16149892 -0.0763879 -0.25367412 -0.102354825
0.15614314 0.12246686 -0.04815522 0.027945993 0.04031881 0.0530678 -0.1005768 -0.06840771
0.049251705 -0.075160585 0.00735958 -0.09807301 -0.07162539 -0.15188482 0.3412615 -0.14339377
0.036422815 -0.12503123 0.048494555 -0.09838169 0.29235214 0.1495997 -0.01853398 -0.17080581
0.12906727 0.010947092 0.031879343 0.06574049 0.08404848 -0.3050725 -0.015942033 0.273348
-0.00332438 0.15847093 0.1420633 0.0055719605 0.046272635 0.200221 -0.16312727 -0.08484062
-0.010066617 0.033501998 0.109677255 -0.096246205 0.123806864 0.049993925 0.056659903 -0.32629275
0.01389495 0.15377489 0.35079774 0.08183493 -0.073670246 0.066581234 0.12305849 0.119118705
0.06958886 -0.10228006 0.022738786 -0.09732426 -0.049458545 0.1779319 -0.23020732 -0.006406861
0.037773542 -0.12454146 -0.13427097 0.18673277 -0.017886216 0.10590775 -0.15904774 -0.022335056
-0.05514891 -0.04171979 0.10306996 -0.0187509 0.024519192 -0.03192166 0.07405512 -0.20529439
0.02757376 0.003008527 0.08480204 -0.018650625 -0.04615508 0.10698686 0.23614177 -0.058972843
-0.033372063 -0.13482058 0.11616372 -0.074667424 -0.042720065 0.14413115 0.30734307 -0.021894747
-0.23099406 -0.072369955 -0.018849798 -0.08983191 -0.08960146 -0.21752538 -0.061630826 -0.094741434
0.19371313 -0.20831372 -0.1890102 -0.1099524 -0.10479701 0.023766257 0.11464903 0.08335386
00000000: e051 14bd 5e75 d9bc b1d0 36bc 2bac e3bd
00000010: d64d b93d 7580 d1bd d2a7 aa3d 36d9 57bd
00000020: 686c f63b f22c 7fbe c1ed 2fbe 824d aa3c
00000030: 1902 cabc afac 923d ac35 f3bd 99da 533e
00000040: 4015 a0bc 3668 67bd 2461 f6bc 1d7f 0dbd
00000050: ef94 223e a0ff 533e b39c 00bd 5f57 d23c
00000060: 8d85 d3bd d9a0 cebc 265f 483c 4f85 26bc
00000070: 9994 9d3d 3147 d63d 8881 2fbe bf0a d2bc
00000080: 10ba fcba 5a0f e73c a932 4d3d 04fe 4bbe
00000090: 0d8f 9ebd d452 3cbb 4dfc 863d 10c4 6bbc
000000a0: 5c3e c7bd df14 c1bd 76b0 2abc d41b 99be
000000b0: 76f9 83bb 8fd2 f2bd 64ce b03b 9968 5abe
000000c0: a142 be3d abdc 653d 0c0d 02be 9c54 113c
000000d0: e0be 47be 8a5d e83c 024f 943c a416 ef3d
000000e0: 2119 df3d ba60 f63c 5269 b2bd 5659 453d
000000f0: 1ec6 553d ad0b d7bd 7bdd 023e 7a1b 643d
00000100: 731c 2e3e facd 773d 7f45 d7bc 91b4 a6bd
00000110: 8610 793e f9c4 bf3d 10cd bd3d da41 d93d
00000120: 369e ebbd 52c1 903c 6d30 1d3c 8937 14bd
00000130: 8d4c a2bd a9d3 1bbd d609 603e f803 8f3d
00000140: a868 2b3d ba6c 0bbe 5cd5 ca3c 57ff d73c
00000150: 027c 4fbd 10af 4a3e 376d 04bc 6a29 683e
00000160: 4208 fd3c e27a 163e a6ab dabd 6989 3fbe
00000170: e9a3 35be 7b3f 823c 3789 86bc 1218 253e
00000180: ab62 9dbd 88a5 85bd 157a 8abc a90b 29bd
00000190: feb8 293d a443 483c c667 02bc 9b2b e6bd
000001a0: a550 13be af32 c73d 952a bbbd c410 cbbd
000001b0: 9551 203e f949 043c b18e 923d 9204 14be
000001c0: 7e0c b0bd 0aea fc3d 2c43 343e 3a3f 303d
000001d0: e086 493d bbb7 dbbb bb58 abbc 0aa1 07bd
000001e0: ab11 4a3d a921 253e b499 18be 6150 933d
000001f0: 3123 ad3c 44f3 0dbb 10a9 413d 1069 003e
00000200: 9ca8 16be 9078 423d 5f5e 873d f186 9cbb
00000210: f1ee 833e 4462 a33c b4da 81bd 556b b43d
00000220: 8ad9 253d 44c5 65be 275d 253d 92c9 5c3d
00000230: f95f 253e 4271 9cbd 93e1 81be 689f d1bd
00000240: fde3 1f3e e8cf fa3d 683e 45bd ffee e43c
00000250: 5625 253d 9f5d 593d 36fb cdbd 5719 8cbd
00000260: 28bc 493d cbed 99bd a228 f13b 81da c8bd
00000270: 55b0 92bd b287 1bbe d4b9 ae3e d1d5 12be
00000280: 1730 153d 3008 00be 3aa2 463d 577c c9bd
00000290: 2eaf 953e aa30 193e 93d4 97bc b8e7 2ebe
000002a0: 362a 043e 6f5b 333c ea93 023d f3a2 863d
000002b0: 9c21 ac3d 7632 9cbe de98 82bc 45f4 8b3e
000002c0: d7dd 59bb 3446 223e 0b79 113e fe94 b63b
000002d0: 6088 3d3d bc06 4d3e d60a 27be ebc0 adbd
000002e0: 74ee 24bc 6439 093d 789e e03d bb1c c5bd
000002f0: 748e fd3d 6ec6 4c3d 3714 683d d80f a7be
00000300: a5a7 633c 2a77 1d3e c39b b33e 1299 a73d
00000310: 6de0 96bd be5b 883d 1706 fc3d 82f4 f33d
00000320: 9b84 8e3d 3578 d1bd b146 ba3c f151 c7bd
00000330: 0b95 4abd c833 363e 78bb 6bbe a5f0 d1bb
00000340: 6eb8 1a3d 980f ffbd 547e 09be e036 3f3e
00000350: 1d86 92bc 2ae6 d83d 69dd 22be 02f8 b6bc
00000360: d3e3 61bd 5fe2 2abd 5816 d33d 7d9b 99bc
00000370: 79dc c83c 49c0 02bd 36aa 973d b138 52be
00000380: 5ee2 e13c b52a 453b b1ac ad3d 32c9 98bc
00000390: 1c0d 3dbd ed1b db3d 26cf 713e 828d 71bd
000003a0: 25b1 08bd 680e 0abe 3fe7 ed3d 3ceb 98bd
000003b0: 3cfb 2ebd 1e97 133e 125c 9d3e 9d5c b3bc
000003c0: b589 6cbe b336 94bd e46a 9abc cbf9 b7bd
000003d0: f880 b7bd f9be 5ebe 9b70 7cbd cc07 c2bd
000003e0: bc5c 463e 3150 55be e48b 41be b92e e1bd
000003f0: d19f d6bd 74b1 c23c 1ccd ea3d 6eb5 aa3d

bias f4 [8]
0.033613518 -0.15819415 0.12190271 -0.015084639 -0.159243 -0.01945917 -0.1265048 0.07742839
00000000: 54ae 093d a6fd 21be 21a8 f93d 9025 77bc
00000010: 9910 23be d668 9fbc 798a 01be c792 9e3d

weight f4 [8]
0.87684155 0.9617263 1.0365382 1.05086 1.2533395 1.0304198 0.95769143 0.96609586
00000000: b078 603f b233 763f 49ad 843f 9582 863f
00000010: 6e6d a03f cce4 833f 442b 753f 0f52 773f

bias f4 [8]
0.28941864 -0.27604252 0.03339631 0.18496461 -0.42773047 0.17671417 -0.2920488 0.09728833
00000000: ae2e 943e 7255 8dbe 92ca 083d 5d67 3d3e
00000010: 7dff dabe 8ff4 343e 6c87 95be 1b3f c73d

weight f4 [8]
0.71995217 0.030924488 0.18539873 0.72238183 0.07703148 0.828311 0.08247699 0.15161195
00000000: c94e 383f 5a55 fd3c 2ad9 3d3e 04ee 383f
00000010: aec2 9d3d 310c 543f b2e9 a83d 2a40 1b3e

bias f4 [8]
-0.099532865 0.03458725 -0.25697097 -0.1295778 0.08829206 -0.067902565 0.10213106 -0.20558828
00000000: e3d7 cbbd 5cab 0d3d b391 83be 0bb0 04be
00000010: 78d2 b43d 8010 8bbd 172a d13d bc85 52be

weight f4 [1, 8]
0.10707777 -0.004477791 0.0027471506 0.08260671 0.0011422447 -0.16391659 -4.8066286e-05 0.0022144567
00000000: 974b db3d 6fba 92bb 8a09 343b b52d a93d
00000010: 5fb7 953a c0d9 27be c89a 49b8 6b20 113b
