models/stock_transformer_state_dict_backtest.pt (torch, 308587 bytes, 15 tensors)

encoder.weight f4 [8, 6]
00000000: b405 3ebd 86bb 2a3c 379b b9bc a020 e23c
00000010: 7f37 2abc 2958 6d3d 10ee 32bd 584d 093c
00000020: 747d 233d f70f 04bd 91ba 7dbc ea95 6dbb
00000030: a987 ba3e 0d5e 623e 5d5b 063e 0f9e c63e
00000040: 5b1d 62bc e129 d63d 961c 073d ed0b 2abb
00000050: 6384 b9bd cd6d 343c 91b4 38bc 356c a1bd
00000060: 8f4b 18be 8966 863d ea5e d5be 92a6 bebe
00000070: 5463 f63c 6df5 c1bc 518a aebe 8621 e33d
00000080: 3ec0 1d3f 764b 40bc f2f3 8fbd 7d92 8c3e
00000090: 8448 ecbd c827 39be c4a9 0f3c b360 bcbd
000000a0: c697 e3bc 5f96 503f a8c7 093f 4422 e23c
000000b0: 49fa 043d e47a 52be 9cf1 be3d e394 0fbd
-0.046392158 0.010420686 -0.02265702 0.027603447 -0.010389208 0.057945404 -0.043684065 0.008380257
0.039914563 -0.032241788 -0.015486375 -0.0036252686 0.36431625 0.2210619 0.1312079 0.38792464
-0.013800944 0.104572065 0.032986246 -0.002594705 -0.09058454 0.011012507 -0.011273519 -0.07881967
-0.14872573 0.06562526 -0.41673976 -0.37236458 0.03007666 -0.023676598 -0.34089902 0.110903785
0.61621463 -0.011736741 -0.07028951 0.27455512 -0.11537269 -0.18081582 0.008768503 -0.091981314
-0.027782332 0.8147945 0.53820276 0.02760423 0.032465253 -0.20554692 0.09323427 -0.0350541

encoder.bias f4 [8]
00000000: 3142 473d ef43 9cbd 541d c3be ce38 1e3c
00000010: 2d4d 55be 4119 92be 6bfd f5bd 2932 1cbf
0.04864711 -0.07630145 -0.38108313 0.009657098 -0.20830221 -0.28534892 -0.12011226 -0.6101404

transformer_encoder.layers.0.self_attn.in_proj_weight f4 [24, 8]
00000000: c281 babe 8194 803f 8494 fd3d bd34 79bf
00000010: 21f8 043f 130e f8be efcc 953e c3c4 4c3e
00000020: 6673 b0bf 1696 dc3d 5fa1 e63d d3ed b83f
00000030: 5563 98bc 7bd7 12be f786 193e dcc1 17be
00000040: 3c2f 5a3f 7162 f83f 0a62 b43e 927d 2f3f
00000050: 238b 373e 956b 43be ba75 3d3e 8463 5f3e
00000060: c8f6 bdbf 1e05 083f cb72 1ebc b4b9 00bf
00000070: e555 55bd 47d1 113f cf18 653e 97d2 d43d
00000080: bb94 e5bf 02bd 563e 8dce 03bf c40b cd3f
00000090: 7c77 bebe 666e 9a3d 35b9 f03d 757d 533c
000000a0: 8dbb e3bf 4208 273f a852 cb3e a156 9dbf
000000b0: 4c20 9e3e eb14 973e 9397 53be 5c25 733e
000000c0: cbae 38bf 3599 16c0 7a64 633e 6947 a23d
000000d0: f27f 833e 91b6 e53d da9e e63e 3ad0 9f3c
000000e0: 4a36 c9be 6f1f 9abe 588c 51bf 1851 79bf
000000f0: e07e c1bd c5d5 efbe 4602 93be f338 bbbe
00000100: 7a09 323f 1832 833f 9510 59bd da85 55bf
00000110: bfb4 003f 760d e2be b559 ea3d 381e cc3e
00000120: 7364 1bbf 20a6 a83f bc85 783e 87bd ba3f
00000130: c9d5 1e3e c2ef f83b b481 373e 1837 423d
00000140: 23f3 e93f f358 413e c851 663e b80a ee3e
00000150: 2895 863a a418 89be 6764 b0be 0dec 803e
00000160: c921 e1be 8f00 d23f 6ec3 563b cb96 29bf
00000170: 16b5 0bbe 0f52 293e e429 64be 4262 1f3e
00000180: 50b7 60bf 0c7e eb3f b95f 02be e1b0 b03f
00000190: 4a6b 97bd 0d57 a6bd 1f78 8e3e a61d 89bb
000001a0: 0f95 14bf 8a97 0440 57f8 343e 73a2 9fbf
000001b0: 87ab ea3c bddf f33c 5696 62be 7e91 0b3e
000001c0: 486f 3cc0 6151 68bf 6b39 213e 7a5e 043d
000001d0: 24a0 943d eab2 66be 9213 44be 16b3 6f3e
000001e0: 15db e3be a181 963e bd47 3abf 889b 34bf
000001f0: c68c 2e3e f75d 2ebe 7356 c43e cd38 013e
00000200: dc3e 1ebe db6c 083d 346e 7e3e 8173 973d
00000210: d3f9 8c3d bd56 c9bd 4888 213f 5112 483f
00000220: 20b7 533e 11b6 3f3e 16ba c93e 7606 103e
00000230: 4cf1 d7be 75d9 043d 9097 ae3c a30c 3c3f
00000240: b3be 8fbe e968 13bf a706 9dbe 3123 96bd
00000250: 4acd 3d3b 58e3 59be c113 df3b df5f 043e
00000260: cfeb 95be d99b 983e 41e4 75be 58c9 3f3e
00000270: aca6 b93e 5923 3f3e 60f5 27bf c648 79be
00000280: 8c1e 7abe a8ca acbe 26a8 38bf 0b4c 67be
00000290: 3a7c 053f 37da 77be 51ec 0abf d603 05be
000002a0: 7aaf c7bd b816 c33d 71ed 74bd e389 acbe
000002b0: 631f 963e 1193 8a3e 07ba 75be ccb0 703e
000002c0: ee1a 573e b953 0cbd b138 83bd bf67 2f3f
000002d0: de4b 343e 6d81 88be b9c7 a7bf 4471 05bf
000002e0: ead2 0dbf 0b43 88be b1db 793e 0418 893e
000002f0: f151 23bf be0f debd b48e 6f3e 81e3 8b3d
-0.36427122 1.004532 0.12381843 -0.973461 0.51941115 -0.48448238 0.29257914 0.19996934
-1.3785217 0.10770814 0.11261248 1.4447578 -0.018602053 -0.14340012 0.14992891 -0.14820045
0.85228324 1.9405042 0.35231048 0.6855098 0.1792417 -0.19084008 0.1850194 0.21815306
-1.4840937 0.5313281 -0.009670923 -0.5028336 -0.05208387 0.56959957 0.22372745 0.10391729
-1.7936014 0.20970538 -0.51487046 1.6019216 -0.37200534 0.07540588 0.117540754 0.012908329
-1.7791611 0.65246975 0.397115 -1.2292062 0.30884016 0.29508147 -0.2066329 0.2374472
-0.7214171 -2.353101 0.22206298 0.07923777 0.25683552 0.112164624 0.4504307 0.01950847
-0.39299232 -0.30102107 -0.8185477 -0.97389364 -0.094480276 -0.4684278 -0.28712672 -0.36566886
0.6954571 1.0249662 -0.05299433 -0.83407366 0.50275797 -0.44150895 0.114428915 0.39866805
-0.6070015 1.3175697 0.24269766 1.4589089 0.1551124 0.0075969407 0.17920572 0.047415823
1.8277324 0.18881588 0.22492135 0.46492553 0.0010267841 -0.26776612 -0.344516 0.25180092
-0.4397109 1.640642 0.0032770294 -0.66245717 -0.13643298 0.16535209 -0.22281605 0.15564826
-0.8777971 1.8397841 -0.12731828 1.3803979 -0.07393511 -0.08122072 0.2782602 -0.0041844426
-0.58039945 2.0717492 0.17672859 -1.247145 0.028646244 0.029769773 -0.22127661 0.1362972
-2.944292 -0.90749174 0.1574456 0.032316662 0.07257107 -0.22529188 -0.1914809 0.2340816
-0.44503084 0.29395774 -0.72765714 -0.7054982 0.17045888 -0.17028032 0.38347206 0.12619324
-0.15453666 0.033306938 0.24846727 0.073950775 0.06883588 -0.09830997 0.63098574 0.7815295
0.20675325 0.18721797 0.39399785 0.14064965 -0.42176282 0.032433946 0.021312505 0.7345678
-0.2807518 -0.57581955 -0.30669138 -0.07330931 0.0028961473 -0.21278131 0.006807775 0.12927197
-0.2928147 0.29806402 -0.24012853 0.1872915 0.36259973 0.18665828 -0.6560879 -0.24344167
-0.24425715 -0.33748364 -0.72131574 -0.22587602 0.5214268 -0.24204336 -0.5426684 -0.12989745
-0.097502664 0.09525818 -0.059796754 -0.3369895 0.2932082 0.27065328 -0.23996745 0.23504943
0.21006367 -0.03425953 -0.064072974 0.6851768 0.17607066 -0.26661244 -1.3107826 -0.52125955
-0.55399954 -0.2661365 0.24400212 0.26776135 -0.6379691 -0.10842846 0.2339428 0.06830502

transformer_encoder.layers.0.self_attn.in_proj_bias f4 [24]
00000000: 5253 ab3d ff85 103e a436 8c3e 4213 64bd
00000010: f482 ecbd 0ba1 1abd 5ade ba39 f42d 2b3e
00000020: 2c43 bd37 6d85 59b8 1241 7a38 5808 df39
00000030: 6974 a6b9 b6ec 7ab7 6f3e d0b8 aa69 ba39
00000040: c703 b83d 0763 e53e 41d6 f2be 175c 8c3e
00000050: 1ab1 6a3d 548f 083f 4b0a 24bc ac4e ecbe
0.083655015 0.14113615 0.27385437 -0.05568243 -0.11548415 -0.03775124 0.0003564235 0.16716748
2.2561835e-05 -5.1861094e-05 5.9665246e-05 0.0004254009 -0.0003174872 -1.4956275e-05 -9.929842e-05 0.0003555541
0.089850955 0.44802114 -0.47429088 0.2741401 0.057297803 0.533437 -0.01001222 -0.46153772

transformer_encoder.layers.0.self_attn.out_proj.weight f4 [8, 8]
00000000: cd7d c63e 5295 243f cabb 2ebf 5b80 8c3e
00000010: b4c8 0ebf 6092 f13e ed03 1ebf 298e 0abe
00000020: 79c0 a5be 0e80 0fbf d403 193e e213 0a3e
00000030: 9f41 d23e 556c 2ebe cd30 dd3e 4829 ec3e
00000040: 06c5 89be 8b11 01bf 2d00 703e cb19 b13e
00000050: d88d b3be c24a a63e d7ae 013f 0dd3 e63d
00000060: 1dfc 813e f6bd 193e 1d4e b8be bcd2 53be
00000070: b000 01bf ae18 923e 79cc c1be 35ab e7bd
00000080: 6e35 183e 63fc 6a3d 143e ab3e 8bd3 c0be
00000090: 9aae afbe fa9e dcbd be61 c3be 9106 223e
000000a0: 3e9d 36bd 4f5d a03e 20c5 573d c912 833e
000000b0: f01d 073f 28b8 c03e f67a 9cbd a582 babe
000000c0: 36e9 cf3e 474d d83b d273 713e 316c 9abe
000000d0: 65e6 28bf b3d6 9bbd f6f3 bebe accc 003f
000000e0: 0b91 78be f12b efbd 99f8 1dbe b2ce b03e
000000f0: 0da8 2e3f 4c02 d33b f211 073f 3121 0ebf
0.38767853 0.64290345 -0.68255293 0.27441677 -0.55775 0.47181988 -0.6172474 -0.13530792
-0.32373407 -0.5605477 0.14942867 0.13484147 0.4106569 -0.17033513 0.43201295 0.46125245
-0.2690813 -0.50417393 0.23437567 0.3458999 -0.35069156 0.3247891 0.5065741 0.112707235
0.2538766 0.1501387 -0.35997096 -0.20685858 -0.50391674 0.28534454 -0.37851313 -0.11311952
0.14864132 0.0573696 0.334458 -0.37661394 -0.34312898 -0.1077251 -0.3816051 0.15822817
-0.04458355 0.3132119 0.052678227 0.2560027 0.52780056 0.376405 -0.076406404 -0.364278
0.40607613 0.006601009 0.23579338 -0.30160668 -0.65976554 -0.0760931 -0.37295502 0.50312304
-0.2427408 -0.11678303 -0.15426864 0.34532696 0.68225175 0.006439483 0.5276176 -0.55519396

transformer_encoder.layers.0.self_attn.out_proj.bias f4 [8]
00000000: f064 1b3f 4d9b 0cbf 04eb 66bb 7ab9 963e
00000010: 861a 23be d406 ed3e a3f3 a4be 92a1 e03e
0.60700893 -0.5492447 -0.0035235295 0.29438382 -0.15928087 0.46294272 -0.3221713 0.43873268

transformer_encoder.layers.0.linear1.weight f4 [2048, 8]
00000000: c026 1e3a 749a 43be 9cd4 78be 1413 64bd
00000010: cad2 02be 438b c13c 2b0a a2be a964 8e3d
00000020: 1eb9 ae3e cc9a 0bbe cbbd ea3d 17b0 8abe
00000030: 9975 6abc 8891 153e ade3 29be 2471 eb3e
00000040: 1b01 bcbe b1c8 753d 49a6 30be 6363 31be
00000050: 0e43 a13e a0bd 0bbe d92d 28bd ca75 bfbd
00000060: 89d8 2bbd 3178 c73e a007 e0bd aea4 02be
00000070: 6276 6d3e 2583 c33e 7cde 81bd 62d4 c4be
00000080: f514 0cbe 24af 0dbf 6935 a0be 7eda 2b3d
00000090: e96b 9cbc 2ac0 b6be d3dd abbe a2cf 5c3c
000000a0: 817d 3b3d f024 833e 0260 f03e efd6 c0be
000000b0: fe64 c23e 1489 c83d 836d edbd e1f5 683d
000000c0: 9faf 623e 6c53 57ba a3ab f7be 4d97 c1bd
000000d0: eb5b f5bd 154a 593e 8eae 333d f7a6 40be
000000e0: 6ee7 28be b94b d5bd 7f09 8f3c f88b b93e
000000f0: cbbd f0bd a7b8 7f3d 95f7 ffbd 60e5 d03d
00000100: ce99 1b3e 1b9a f1be b22c fd3d 4e26 2e3f
00000110: 5fbf 12bf c93c 1c3f fc95 c93d c5cd 76bd
00000120: 2208 51bd ceb7 c33e 4ef3 18bf 1144 86be
00000130: 2d01 dabc 06a4 0bbe 7d22 a1be aaa2 19bf
00000140: fd36 3a3e 6929 203d faeb eb3c 3f10 e43d
00000150: e4b2 183d 6ca9 16bf 1bd0 44be 3e69 40bd
00000160: 9b3a 233d 840d a13e c9b3 343e 2d8c abbd
00000170: 763a 963e 436c ad3e 6cf0 823e 9b5b 3ebe
00000180: d1cf 8fbd 6ee3 cd3e a961 173e 46f9 5fbe
00000190: f8ff 953d 3562 9cbe 1f6f 8e3e 479f fcbd
000001a0: f4e1 9dbe 1eb3 b13d 2e05 943e a341 f8bc
000001b0: cf7c 703d 0612 2dbe 1401 923e c70f bc3d
000001c0: c7be 743e 7d37 c53e 8ee8 49be 98d6 aabe
000001d0: ef57 df3d 674c a73d 6b1c 6b3e 7da0 73be
000001e0: db20 e53d b2fb 8ebe 1ad6 4fbe 596a 80be
000001f0: 2412 3c3f a961 253d f9ff e7b9 34b6 dcbe
00000200: 4cdd ccbd 8846 403d 6db5 d9bd 089c e83d
00000210: 545a 01bd 161c 683e 9aea 87be a028 1d3e
00000220: 62a5 7e3e 8e5b 883e 93f0 e0be df04 8bbe
00000230: eccc 503d 8192 7c3e bd7d 843d 6b91 b43e
00000240: 00d7 4a3e 894b bf3d f64c c4be a4b6 e8bd
00000250: d9ad 3fbe cd31 163e ecd6 753d 0bc0 933e
00000260: 3429 fbbe b468 023d 30bb 033e dff9 98be
00000270: ad2d efbd 4022 18bf dca5 083f 5ad0 56be
00000280: 7d27 1f3e 912a e8bd 747c d2be 2453 96be
00000290: dda5 4cbe bcd0 85be 84f2 f93e 0681 ddbe
000002a0: 7b00 773e fd1a 113f 28f1 39bf 2ffc e8be
000002b0: b6c1 40bd b7ec 803e 1fa2 283e 4ad1 0b3d
000002c0: 1c40 1a3e 423a 803e 813e f1bd f501 21bd
000002d0: 060f adbd 79b9 853e f28e 623d f4e9 b23d
000002e0: 8ddb 73be 779e c53d e618 41bd 3a05 be3d
000002f0: 70d1 cc3e a929 8ebe cf59 90be b236 cbba
00000300: 4030 c5be 5c75 e03e a3fc 313e 7f42 91bd
00000310: da17 3ebe cec1 df3d 9e2d d23d 7d50 1b3d
00000320: 1592 f6bd d075 a33e 13ba d4be 323e 9e3d
00000330: 8b0a 89be b062 8f3d 470a 6a3e 16d7 0ebe
00000340: fa2b 04be 5b42 a03d 6ecf f03d 7698 553d
00000350: 1bb0 673e 90df dabd 8a99 29bc b5fe 2bbe
00000360: f350 30be 1f77 6ebe 07a4 b4bd c251 953e
00000370: a4dd 2ebe 89b8 893e fa26 7ebe 2e9c c93d
00000380: 1786 2abe 4f1c 55bd 3e92 19be 01a3 df3d
00000390: 4740 0a3e 8443 b0be c803 413e 85a9 ddbe
000003a0: b43e 92bd fb06 cdbd 79ec 6dbe c61c e2bd
000003b0: 8758 503e 0f58 17bf 992e 923d 35f9 93be
000003c0: efb6 f1bd cae9 033e 9395 a2be 1eaf 393e
000003d0: 0943 a4be 256d 91be e372 883e d229 963e
000003e0: e662 81be ba6c a2be ec66 9c3d 4df2 c5bc
000003f0: de93 3dbe 315e cc3e 2146 813e c4fe 84be
0.0006032996 -0.19101888 -0.24299854 -0.055682257 -0.12775722 0.023625975 -0.31648383 0.06952793
0.34125608 -0.13633269 0.114619814 -0.2708747 -0.014310264 0.14606297 -0.16590758 0.45984757
-0.36719593 0.060005847 -0.17250933 -0.1732307 0.3149647 -0.13646555 -0.04105935 -0.09348638
-0.04195455 0.38958886 -0.10938954 -0.12758133 0.2318969 0.38185993 -0.06341264 -0.38443285
-0.1367987 -0.5534537 -0.3129075 0.041956417 -0.019094424 -0.35693485 -0.33567676 0.013477238
0.045773987 0.2561412 0.46948248 -0.3766398 0.37967676 0.097917706 -0.11593153 0.056875113
0.22137307 -0.000821403 -0.48373136 -0.094526865 -0.119804226 0.21219666 0.04386764 -0.18813692
-0.16494533 -0.104148336 0.017460583 0.362396 -0.1175495 0.062431958 -0.124983944 0.102
0.1519539 -0.47187886 0.123620406 0.680272 -0.5732326 0.6103025 0.098430604 -0.06025483
-0.051033147 0.3822617 -0.59746253 -0.26223806 -0.026611889 -0.13636789 -0.31471625 -0.6001383
0.18185039 0.03910199 0.028799046 0.11135911 0.03727998 -0.5885227 -0.19220011 -0.046975367
0.039850812 0.31455624 0.17646708 -0.08376346 0.29341477 0.3387166 0.25574052 -0.18589632
-0.0702206 0.40212578 0.14783348 -0.21872434 0.07324213 -0.30543676 0.27819154 -0.12335067
-0.3083645 0.08676742 0.28910202 -0.030304736 0.058712777 -0.16901407 0.28516448 0.09182697
0.23900901 0.38518897 -0.19717619 -0.33366847 0.10905444 0.081688695 0.2296006 -0.2379169
0.11187907 -0.27926403 -0.20296517 -0.25081137 0.7346518 0.04037634 -0.00044250468 -0.4310776
-0.100031465 0.046942264 -0.10630307 0.113578856 -0.031580284 0.22666964 -0.26546174 0.15347528
0.24867776 0.2663235 -0.43933544 -0.27152154 0.05097668 0.24665262 0.06469295 0.35267195
0.19808578 0.09340579 -0.38339967 -0.11362961 -0.18718661 0.14667435 0.06001942 0.28857455
-0.49054873 0.031838134 0.12864375 -0.29878137 -0.11678634 -0.5942726 0.5337808 -0.20977917
0.15542407 -0.11336244 -0.41110575 -0.29360306 -0.19985147 -0.26135814 0.48817837 -0.432625
0.24121277 0.56681806 -0.726336 -0.455049 -0.047059737 0.251806 0.16468094 0.03413514
0.15063518 0.25044447 -0.117795 -0.039308507 -0.08450131 0.26118067 0.055312105 0.08736029
-0.2381422 0.096493654 -0.047142886 0.09278341 0.40003538 -0.2776616 -0.2819352 -0.0015503971
-0.38513374 0.43839538 0.1738153 -0.07092761 -0.18563786 0.10925637 0.10262607 0.037918556
-0.12039582 0.3192582 -0.41548213 0.077267066 -0.26765856 0.07001245 0.22855483 -0.13949236
-0.129074 0.07825156 0.11758314 0.05214735 0.22625773 -0.106871724 -0.010351548 -0.16796382
-0.1721838 -0.23287629 -0.08820348 0.2916394 -0.17076737 0.26898602 -0.24819556 0.09844242
-0.16652714 -0.05202895 -0.14997193 0.109197624 0.13501082 -0.3442651 0.18849099 -0.43293396
-0.07140866 -0.10011097 -0.23234738 -0.11040644 0.2034627 -0.5911874 0.07137794 -0.28901067
-0.1180247 0.12882152 -0.3175474 0.18133208 -0.32082394 -0.28403583 0.26650152 0.2932878
-0.25270766 -0.31723577 0.07636818 -0.02416339 -0.18513438 0.39915612 0.25248817 -0.2597562

transformer_encoder.layers.0.linear1.bias f4 [2048]
00000000: e74e 743e 56f0 a63d 4714 85be dbba 33be
00000010: 3d4a 3a3e 213e e63d e960 17bd 2104 3e3e
00000020: 7368 ff3d 769d 4bbe f685 51be 3b4a 1c3d
00000030: 1143 ddbe cb11 c5be ae35 bdbd a616 d2be
00000040: d7e2 113e f11d c83d 00cf 65be e085 353e
00000050: d921 6a3e 5470 7abe 9a9e dd3c d3ad cabd
00000060: b004 1f3e d6e8 e8be 91f6 2dbe 08e6 0d3e
00000070: 12ad 183c 00e4 abbd fda7 bbbe b975 a1be
00000080: e2f6 b2bc 536f e43e b49a c6be 88ea 6bbe
00000090: 4fc1 36be 2b0c e23e 490a 64be a848 ccbd
000000a0: 23b9 093d b5ab a6be 933c a63e e3d5 bbbe
000000b0: 93da d8be b3d0 9dbe 1709 503d 6975 423e
000000c0: e2f4 7c3e bbe8 333e 533c b1be 3ce4 b63d
000000d0: 5c13 763c 5c1c babd f446 e1bc ce58 cdbe
000000e0: de4e f23e beef 30bc 84cd 58be 6901 5e3e
000000f0: 8ae6 14be bc38 293e 86ad 983a 3a48 853d
00000100: 1dde a1be c8fd abbe cbce 1cbe 3724 c4bd
00000110: eab1 dfbe 154c 66be b343 d4be 7c73 4bbe
00000120: 8048 85bd c249 e53e eacc d33a 9fad 93bd
00000130: 475b 8a3d 1684 f5bd 2e40 8ebe 0a92 543c
00000140: 9cfa 9b3d 7857 c0bb bfb8 8cbd 3b27 7e3a
00000150: 94cf 703d bc61 2d3e ce61 11bd 7a4d 9e3e
00000160: 730f 9c3e b014 813d 0167 aebe 26cd d0be
00000170: acfc ffbd 1be4 afbd 11b3 b03e 6f85 89be
00000180: 8ae6 adbe 28ee 8fbe c0b4 373d 93b3 74be
00000190: 0818 efbb 72ab 7c3e 65e8 dfbe 327a c0be
000001a0: 22a0 7c3e 6189 253e 3963 3c3e 8ba1 863e
000001b0: 80b8 e2be 062a 60be 6ff2 8c3e a8ac 42bd
000001c0: 9695 793d 73d0 3d3d d619 89be ad12 1e3e
000001d0: f933 fabd 1cae 8f3e a45a 20be 2980 f33d
000001e0: a390 f7be ec23 cb3d 9a77 fcbd 3668 da3e
000001f0: 7006 5cbe 32d2 51be 07ef 09be 9661 1b3e
00000200: a746 95be 0cf9 533e 8d6f a7be bbfc d4bc
00000210: 8f33 0aba 561d a93e f0dc acbe 4cf4 923e
00000220: 2a94 22be 5a0f 583e 2148 3b3e 6409 fc3d
00000230: 5148 b5be 4216 b0be d12b 323e 382c aebe
00000240: d056 11be 7584 b23e 3061 933c 31f8 873e
00000250: 50b4 c33e 5f35 49be ec4c 86bd 1f2b f5bc
00000260: f503 1ebe b6c1 dbbd d39d 6fbe 2251 00bf
00000270: f7a3 6dbc 53f4 adbd 8c7e adbe e488 95be
00000280: 7c01 a43e 577b 0cbe 6987 67bd 92b1 82bd
00000290: 1485 fcbe a41d f0bd 0b39 7cbe e344 50be
000002a0: 3a91 8b3d ed83 9dbd 58f8 e1be a7ab a4be
000002b0: 76c6 c53d fb33 92be 4a93 8a3d 69d8 8ebe
000002c0: 4755 163d f36e 12be bbeb 1bbe 0b95 c5be
000002d0: 8d36 54bd f6e0 e8be 517a 56bc a57c 33bd
000002e0: cda3 ffbd 6cfb 5cbd fb0e 843e fcf2 c3be
000002f0: 9e99 c8be 565b 93bd 79b9 313e 0894 43bd
00000300: c5b0 093e 6973 343c 0ae8 00bf 0bfc 823e
00000310: 7900 ecba cf2a cdbe 51f8 73be d81f debe
00000320: 6d25 ffbd 7374 fa3c 9a22 ddbd 3ee8 f7be
00000330: 8236 b1be 6388 00bf c919 94be f32f 8cbe
00000340: d5f8 5ebe dc12 69bd ba0d 09be d9a5 abbe
00000350: 0379 38be 66db c6be 6c14 cebe 49c3 ddbe
00000360: 923a a4be f4c9 debc 8c57 c6be 78f4 b2bc
00000370: 4c7e 493e c03b ce3d 7367 f63d ff04 e6be
00000380: 71eb 153e 66f4 0bbf 60d0 b1bd 0256 56bd
00000390: 83e1 94be 7381 01b9 beec f2be 3e3d b53d
000003a0: 5547 abbc 1cb0 3abb 6ca7 553d a191 d1bc
000003b0: 0233 793e 2032 1f3d b1fd aabe 5e8a b7be
000003c0: 54e0 093e 9150 80bd 83fb 26be 55e4 3e3d
000003d0: 93d8 2dbe e7b5 0bbf 1502 83be d7c0 6bbe
000003e0: c026 6b3d d1e5 99be ca18 babe 865c b43b
000003f0: 21d8 983c 10bf eebd 8878 28be 6821 ac3e
0.23858224 0.08151309 -0.25992033 -0.17551748 0.18192382 0.11242319 -0.036957655 0.18556263
0.12471094 -0.19884285 -0.20461258 0.03815673 -0.4321523 -0.38490137 -0.09238754 -0.41032904
0.14246689 0.09771336 -0.22442245 0.1772685 0.22864474 -0.24456912 0.027053166 -0.098964356
0.15529132 -0.4549014 -0.16988589 0.13857281 0.009318607 -0.08393097 -0.36651602 -0.31535128
-0.021846239 0.44616184 -0.38789904 -0.23038685 -0.17847179 0.44149908 -0.22269548 -0.099747956
0.033623826 -0.32552877 0.3246809 -0.3668662 -0.4235426 -0.30823287 0.05078992 0.18990101
0.2470279 0.17569248 -0.34616336 0.08930251 0.015019264 -0.0908744 -0.027499653 -0.40106815
0.47325796 -0.0107993465 -0.21172148 0.21680225 -0.14541069 0.16525549 0.0011648394 0.06507917
-0.3161477 -0.33592057 -0.1531326 -0.0957722 -0.43690425 -0.2248996 -0.414579 -0.19868273
-0.06507969 0.44782835 0.0016159092 -0.0721085 0.06755691 -0.11988084 -0.2778334 0.012974272
0.07616159 -0.005869802 -0.06871175 0.0009695177 0.058791712 0.16931814 -0.035493664 0.30918485
0.30480537 0.06302774 -0.3406296 -0.40781516 -0.12499365 -0.085884295 0.34511617 -0.26859614
-0.3396495 -0.28111386 0.04485011 -0.23896627 -0.007296566 0.24674776 -0.4373199 -0.37593228
0.24670461 0.16165687 0.18397225 0.26295123 -0.44281387 -0.2189103 0.27528712 -0.04752794
0.060933672 0.04634137 -0.26777524 0.15436812 -0.12216944 0.28062522 -0.15659577 0.11889679
-0.48352537 0.09918961 -0.123275 0.42657632 -0.2148683 -0.2049034 -0.13470088 0.15173945
-0.29155466 0.20700473 -0.32702294 -0.025999418 -0.0005271965 0.33030194 -0.33762312 0.2870201
-0.15876833 0.21099606 0.18289234 0.123064786 -0.35406736 -0.3439198 0.17399527 -0.3401811
-0.14193273 0.34866682 0.017990679 0.26556543 0.38223505 -0.19649266 -0.065576404 -0.029927788
-0.15431197 -0.10730307 -0.23400049 -0.501238 -0.014504424 -0.08493867 -0.3388561 -0.29206002
0.32032382 -0.13718925 -0.05652562 -0.06381525 -0.4932028 -0.117244035 -0.24631135 -0.20338778
0.06814809 -0.076911785 -0.44134784 -0.3216221 0.09656994 -0.28555283 0.067663744 -0.27899483
0.03670242 -0.14300136 -0.15226643 -0.38590273 -0.051809836 -0.45484132 -0.013090686 -0.043820042
-0.124824144 -0.053950712 0.2579268 -0.3827132 -0.391797 -0.07195155 0.17355908 -0.047748595
0.13446338 0.011013844 -0.50354064 0.2558292 -0.0018005512 -0.40071723 -0.23825194 -0.4338367
-0.1245831 0.030573105 -0.10797615 -0.48419374 -0.346119 -0.5020811 -0.28925923 -0.27380332
-0.2177461 -0.05690275 -0.13384143 -0.3352497 -0.18014912 -0.38839263 -0.40249956 -0.43313053
-0.32075936 -0.027195908 -0.38738668 -0.021845087 0.19677085 0.1006999 0.1203145 -0.44925687
0.14640595 -0.546698 -0.086823225 -0.052328117 -0.29078302 -0.00012350622 -0.47446245 0.08849572
-0.020908037 -0.0028486317 0.05216162 -0.025582137 0.24335864 0.038866162 -0.33396676 -0.35847753
0.1346448 -0.06265367 -0.16306882 0.046604473 -0.16977148 -0.54574436 -0.25587526 -0.23022781
0.05741 -0.30058149 -0.36347038 0.0055041937 0.018657746 -0.11657536 -0.16452229 0.33619237

transformer_encoder.layers.0.linear2.weight f4 [8, 2048]
00000000: f961 eebc b830 a6bd cfba 623c d053 ebbd
00000010: 28af c13d 1470 1cbe 835d bb3d 0565 96bd
00000020: 34c4 833d 0e1f 89be 9968 3bbe ed30 0a3d
00000030: b7b2 b1bd 2870 603d 0799 fabd ea5b 8d3e
00000040: 5d71 05bd f697 80bd 6f32 fabc 0d0c a7bd
00000050: 42fd 103e d239 813e 071b f2bc 7c61 55bc
00000060: 61cb 83bd 864f 94bc aa77 2e3d 8db3 95bc
00000070: d155 f23d ca41 2c3e f4f6 40be f851 92bd
00000080: 1a5f 4bbc 0d1f 033d d4a2 223d d662 85be
00000090: d1e1 64bd 7881 803b 8638 213d 2466 24bd
000000a0: ea1c b3bd 0f1d 15bd 533c a9ba 266c aebe
000000b0: 48dd dc3b fe1f 3abd dc4f 7d3c cc76 83be
000000c0: 16f6 ad3c 036a ba3d c4cf 0abe 7787 bc3d
000000d0: 6c70 4dbe 3cbc 12bc 9340 923d cf1b d83d
000000e0: 6b27 fe3d 9018 5b3d 95bd dfbd fad7 1c3d
000000f0: 279f 4b3d bef0 1ebe 9254 863e fdf0 903c
00000100: 2c7c fb3d 6ef9 ac3d 7aca 33ba 0340 d9bd
00000110: 9f50 983e b3da 063e 7dd5 e63d c7c5 b53d
00000120: afe8 e1bd 126d ac3c a346 85bc 35ef 01bd
00000130: 03b5 0bbd 1fb2 0dbb a096 4b3e 0e19 283e
00000140: de7e af3d 1150 0ebe 1c0a a13d 1493 75bb
00000150: b309 80bd 29aa 813e 957e 2fbd 2a24 823e
00000160: aead 953b 4630 393e f9c5 0cbe abdb 7ebe
00000170: fffe 5ebe 3cce f9bc 1ae5 063b c79f 4d3e
00000180: 6d60 0ebe a82e a6bd 7371 e43b 9f34 5abc
00000190: 5f5c 3cbd 30d5 a73c c667 02bc 5b18 ffbd
000001a0: 257f 24be 73ea 9e3d 5c18 bdbd 9c83 9cbd
000001b0: 3d56 ed3d ac41 7cbc c916 903d d879 efbd
000001c0: 35f0 98bd ccc5 143e 041c cf3d 51dc e93d
000001d0: 2b92 aabc cdca 48bd 768e 563d 38c1 e5bc
000001e0: f356 783d aff6 333e f397 12be f4c6 f93d
000001f0: 867a 143c b2bb f2bc 1c31 7e3d a62f 113e
00000200: 5617 64be 26fe 7d3d aac8 003d f75d 8f3c
00000210: d035 863e eba3 96bc cd97 07be 00b3 dc3d
00000220: 0e15 a73d e543 4dbe f5fe 63bb 45d6 a93d
00000230: 29a0 303e 47bf 013d 2866 88be a9ba 8e3b
00000240: 218d 383e 5030 d43d 33a7 aebd 79c1 963d
00000250: da55 8db9 93d6 193e c76e 24be 2779 7dbd
00000260: 9b4d 16bc 02c0 cbbd 39ae 703b 1d1c aebd
00000270: 21a4 91bd 06e3 43be e41f 983e 979b 3cbe
00000280: 0e16 7f3c 34d8 08be 8d99 383d 378a 0bbe
00000290: 9181 aa3e a7d4 1b3e f564 82bd cfc9 3cbe
000002a0: 3a2b 1d3e e245 1cbd 2e05 d73c 2ff6 033e
000002b0: 65cf d43d 7ab8 cabe 1db2 203c 0774 aa3e
000002c0: 2a7e 4b3d fb6a fc3d bf25 293e 9099 fc3c
000002d0: 589e 843d 606b 673e 0874 4bbe 6bfd e3bd
000002e0: e993 363d 0730 1f3d 3556 173e 8758 ddbd
000002f0: 717d d93d fda4 6f3d b912 a03d 4072 a1be
00000300: 1cdb dfbc 1347 d83d a3d8 c93e 3f2b 7e3d
00000310: 97cb c6bd 3a93 413d 238c d73d 368a bd3d
00000320: 72e3 823d b2cd 90bd 330a bdbb 959e cebd
00000330: b797 d7bd 53f3 6a3e 2379 6fbe 4e38 cebd
00000340: 3bc5 dd3d 94e7 2dbe 22b4 ffbd ea4e 583e
00000350: 18e9 17bd 50b0 c23d 3b06 2bbe 02f8 b6bc
00000360: 92f1 d6bd 813b 05be 9235 503e 5a02 81bd
00000370: 78aa 293c 1ee9 a1bd 8604 633d a6bd 87be
00000380: afe1 553d 7d5a 863c 3f60 d43d 80b8 79bb
00000390: c1d8 a8b8 16d9 2a3e f2d9 9c3e 033d 92bd
000003a0: c62d 31bd b7b1 66be 728d 033e 6803 08be
000003b0: f9d4 86bc 47fe 0d3e 6acb af3e c22f 6e3c
000003c0: 8722 84be 0d74 69bd deac 823d 864d e1bd
000003d0: c61c 25be 9e1b 6cbe 6288 2bbd fcd5 2dbe
000003e0: d686 623e 0ae8 82be 986e b3bd 47bd 19be
000003f0: 9250 e1bd 1c33 34bc f9fe 3f3e 708f 893d
-0.029099451 -0.08114761 0.013838484 -0.11490595 0.094572365 -0.1527713 0.09148695 -0.07343487
0.06433907 -0.26781505 -0.1830162 0.033738066 -0.08676665 0.05479446 -0.12236219 0.27609187
-0.032578815 -0.06278984 -0.030541627 -0.081565954 0.1415911 0.25239426 -0.029553903 -0.01302373
-0.06435276 -0.018104326 0.04259459 -0.018274093 0.118327744 0.16821972 -0.18844205 -0.071445405
-0.012412811 0.032012034 0.039706066 -0.26051968 -0.055879418 0.003921684 0.039360546 -0.04013647
-0.08745749 -0.036404666 -0.0012911655 -0.34066886 0.006740246 -0.045440666 0.0154609345 -0.25676572
0.021235507 0.091022514 -0.13555819 0.09205525 -0.20062417 -0.008956011 0.07141223 0.10552179
0.12409862 0.05349022 -0.10924832 0.03829191 0.049712326 -0.15521523 0.26236397 0.017693037
0.12279543 0.084460124 -0.00068584795 -0.106079124 0.2974901 0.13169365 0.112711884 0.08875614
-0.11030709 0.021048103 -0.016269034 -0.031722266 -0.034108173 -0.002162106 0.19881678 0.16415808
0.0856912 -0.1389773 0.07863256 -0.0037471699 -0.0625185 0.25325134 -0.042845327 0.25418216
0.0045678234 0.18084821 -0.13747396 -0.24888484 -0.21776961 -0.030493848 0.0020583333 0.20080481
-0.13903971 -0.08114368 0.006971532 -0.01331821 -0.04598653 0.020487398 -0.007959312 -0.12455817
-0.16064127 0.077595614 -0.09233162 -0.0764229 0.11588714 -0.015396517 0.07035596 -0.11693162
-0.07467691 0.14528579 0.101127654 0.11418975 -0.020821651 -0.04902153 0.052381955 -0.028046235
0.060629796 0.17574571 -0.14315777 0.121961504 0.009062415 -0.029630516 0.062058553 0.14178333
-0.22274527 0.062009953 0.03144137 0.01750086 0.2621293 -0.018388709 -0.13241501 0.10776329
0.08158313 -0.20045431 -0.0034789417 0.08292822 0.17248596 0.031676557 -0.2664044 0.0043557477
0.18022586 0.103607774 -0.085279845 0.07361121 -0.0002695758 0.1502326 -0.16057883 -0.061883118
-0.009173776 -0.09948732 0.0036724939 -0.08501456 -0.07111383 -0.19129571 0.2971183 -0.18418728
0.015569223 -0.13363725 0.045068312 -0.13626944 0.33301976 0.15217839 -0.06366912 -0.18436359
0.15348521 -0.038152583 0.026247587 0.1288688 0.1039112 -0.3959387 0.0098080905 0.33291647
0.049680866 0.123250924 0.16518305 0.030834943 0.06475514 0.22599554 -0.19868481 -0.1113232
0.044574652 0.03886416 0.14778979 -0.10807901 0.10619629 0.058506954 0.07816071 -0.31532478
-0.02732616 0.10560431 0.39423093 0.06205296 -0.097068004 0.047259547 0.10524776 0.09254877
0.06391038 -0.07070483 -0.005769038 -0.10088841 -0.10526984 0.22944383 -0.23386054 -0.10069333
0.10828634 -0.16982871 -0.124855295 0.21123853 -0.03708753 0.09506285 -0.16701595 -0.022335056
-0.10495295 -0.1301098 0.20332935 -0.06299277 0.010355584 -0.07905792 0.055424236 -0.26511878
0.05221718 0.01640057 0.1036992 -0.0038104355 -8.051238e-05 0.16684374 0.3063503 -0.07140543
-0.043256544 -0.2252873 0.12846926 -0.1328255 -0.016458975 0.1386653 0.3433488 0.014537754
-0.25807592 -0.05699544 0.06380628 -0.110011145 -0.16124257 -0.2305741 -0.04187811 -0.1697616
0.22121748 -0.25567657 -0.087613285 -0.1501361 -0.11001696 -0.010998514 0.18749608 0.06716812

transformer_encoder.layers.0.linear2.bias f4 [8]
00000000: c060 043d fcce 48be c01e d03d 14dd 2cbc
00000010: f4b7 4cbe 1287 9abc 584f 23be fab8 1c3d
0.03231883 -0.19610208 0.10162115 -0.010550756 -0.19992048 -0.018863235 -0.15948236 0.038262345

transformer_encoder.layers.0.norm1.weight f4 [8]
00000000: 3591 5c3f 7292 7b3f 584b 833f 5fbd 8b3f
00000010: a3c3 a43f d123 843f 2a4e 7b3f 31a1 743f
0.8615907 0.9827033 1.0257368 1.0917166 1.2872204 1.032343 0.98166144 0.9555846

transformer_encoder.layers.0.norm1.bias f4 [8]
00000000: b3fb 943e a943 88be b5da ee3c 5cfa 283e
00000010: 6121 d3be cf0a 403e 6dff 98be aa9d d43d
0.2909828 -0.2661412 0.029157022 0.16501755 -0.41236404 0.18754123 -0.29882374 0.103816345

transformer_encoder.layers.0.norm2.weight f4 [8]
00000000: fd9a 303f a165 5b3c e388 263e d0cf 2e3f
00000010: 2c71 143d 57f5 4a3f 1c51 503d a7bd 023e
0.68986493 0.013390929 0.16263156 0.68285847 0.03624074 0.7928061 0.050858602 0.12767659

transformer_encoder.layers.0.norm2.bias f4 [8]
00000000: cb02 e6bd e188 913c edf8 3bbe ba05 11be
00000010: 5a19 3a3d 6898 8fbd 282e 243d caae 05be
-0.112310015 0.017765464 -0.18356676 -0.14162341 0.045434333 -0.07011491 0.04008308 -0.13054958

decoder.weight f4 [1, 8]
00000000: 57ba b03d 6a57 d038 b76b 943c 1e22 853d
00000010: 8d92 18bb d643 fdbd 9ec1 21bc 359b 893c
0.086292915 9.934495e-05 0.018117769 0.06500648 -0.002328071 -0.12366454 -0.009872822 0.016797641
