models/stock_lstm.pt (torch, 248227 bytes, 7 tensors)

weight f4 [12, 3]
000000 ba be 20 3e 47 72 02 3f a3 e1 e5 be ea 43 a1 be
       0.15697756 0.50955623 -0.4489871 -0.31497127
000010 16 3e 68 3e 59 15 2f 3e 57 a6 1b 3e 0e fd ab be
       0.22679934 0.17097987 0.15200172 -0.33591503
000020 f5 f4 9e 3e 6b f0 f9 3e d5 7a b0 3e cc 8a 75 bd
       0.31046262 0.48816237 0.34468713 -0.05994682
000030 ce 7a 89 3e b8 9f 83 3e 4e 36 80 be 05 61 82 3e
       0.26851505 0.25707793 -0.2504143 0.25464645
000040 e4 d7 aa bd e9 96 6f be 6a bd 4a 3d 21 37 c7 be
       -0.08341959 -0.23397411 0.049497046 -0.38909248
000050 4d 56 dc bd ce de ab 3d f3 96 0f be 83 ed 22 be
       -0.10758648 0.08392106 -0.14022426 -0.15910916
000060 dd 96 dc bd 11 e9 dc 3e 6c 2a 3e 3e 79 71 d8 3d
       -0.107709624 0.43146566 0.1857087 0.10568518
000070 42 2a 65 bd e6 5a 80 be 6d f6 a9 3e 79 f7 c8 bd
       -0.055948503 -0.2506935 0.3319582 -0.09812827
000080 f8 62 5a be a6 e2 45 be 27 fa a3 be 25 32 e1 3b
       -0.21326816 -0.19324741 -0.3202679 0.006872433

bias f4 [12]
000000 49 4a 69 3e 58 55 22 bf 71 22 13 3e 5c e3 50 3e
       0.22782244 -0.63411474 0.14368607 0.2039923
000010 9f 9b f3 be b2 7a 3f be e6 56 91 3e df 44 9b bd
       -0.47579667 -0.18699148 0.2838661 -0.075814955
000020 5c 49 a2 3d 6f b2 e6 be c1 48 99 be e0 e5 dc be
       0.079241484 -0.4505801 -0.2993832 -0.4314413

weight_ih_l0 f4 [32, 12]
000000 11 25 86 be bc c1 1d bd c2 03 57 3e ac f9 b6 3e
       -0.26200154 -0.038514838 0.20997527 0.3573736
000010 2c e2 a6 3d 19 93 ae 3e e6 63 2f be 7a ff 98 bd
       0.081486076 0.34096602 -0.17127952 -0.07470603
000020 64 44 a6 3c d0 90 95 3e 8e 7f c8 bb c4 dd e9 bd
       0.020296283 0.29212046 -0.0061187213 -0.114192516
000030 3e d0 96 be 29 eb 93 3e c2 e1 9b be a7 b3 08 be
       -0.2945575 0.2889035 -0.30445677 -0.13349782
000040 a4 eb 92 3e fe ac d4 be 29 0a 19 be 94 36 d0 3d
       0.28695405 -0.41538233 -0.14945282 0.1016666
000050 81 03 28 3e 8d 38 83 be 56 aa 19 3d d1 c5 34 be
       0.16407587 -0.25629082 0.03751596 -0.17653586
000060 82 36 29 3d 79 84 1e 3e b5 6e 57 be 76 9c 66 3e
       0.04131175 0.15480222 -0.21038325 0.22520623
000070 1c 3e 9f be 6c 1f 8d be cb 96 b2 3d 14 d7 38 be
       -0.31102073 -0.27563035 0.08720168 -0.18050796
000080 07 db 8b 3e c2 7c 98 be c0 da 70 3e 25 47 52 be
       0.27315542 -0.29782683 0.23520947 -0.20534952
000090 64 16 17 3e 42 c8 47 bd c1 be a2 3e 69 5c b0 bd
       0.14754635 -0.048774965 0.3178616 -0.08611376
0000a0 79 4c 9c be 05 29 b5 be ec 57 9f 3d c8 cf 3f 3e
       -0.30527094 -0.35382858 0.07780442 0.18731606
0000b0 b3 41 86 3e 01 84 7c be 2c e3 2d 3d cc 68 1a 3e
       0.26222 -0.2465973 0.042452976 0.1507904
0000c0 1f af c4 bd fc 9c 73 3d 7b 30 7e be e5 d1 4f 3d
       -0.09603714 0.059475884 -0.24823181 0.05073728
0000d0 5f ef 2d be e8 e8 ac bd 78 97 f5 bd 6f 07 dd bd
       -0.16985844 -0.08442861 -0.11991781 -0.107924335
0000e0 f0 ed 29 bd e0 50 96 be 9c 7e 1a 3d f9 bf e6 3d
       -0.04148668 -0.29358578 0.0377184 0.11267085
0000f0 01 a4 9a 3d a5 62 39 3d 2e 87 b6 bd bc 62 87 3e
       0.075508125 0.04526009 -0.08912502 0.26442516
000100 87 1f 87 bd 2d 10 1f be 1a d3 c9 be 8c 1f 41 3e
       -0.0659781 -0.15533514 -0.3941887 0.1885969
000110 1e 46 1c 3d f9 8b 74 be 7a 29 a5 3e 85 a9 56 3c
       0.038152806 -0.2388152 0.32258207 0.01310194
000120 da 0b 1b 3e 0f aa 4b 3e 09 7b 49 3e f5 20 07 3d
       0.1514124 0.19889091 0.1967584 0.032990415
000130 6e a0 46 be e1 37 a5 3d 6d 93 87 3e 95 a2 3d bd
       -0.19397137 0.08067299 0.26479664 -0.04629763
000140 cf 90 f9 3d 34 81 9b be 61 e5 9c be b4 fd 59 be
       0.12185823 -0.30372012 -0.30643752 -0.21288186
000150 39 53 4d 3e 15 2d fd bd f0 56 7b 3e 93 b8 0e 3d
       0.20051278 -0.12362114 0.24544883 0.034843992
000160 58 3d 38 3e 0f 81 0b 3d cf 60 60 3d 5c 2a 50 be
       0.17992151 0.034058627 0.054779824 -0.20328659
000170 cd 8e 8e bb eb 07 c2 bd 95 3d a5 3e ed 00 61 be
       -0.0043505193 -0.094741665 0.32273546 -0.2197301
000180 88 a1 9b be db fd bd 3d 23 19 b3 3d f2 c3 27 be
       -0.30396676 0.09276935 0.08745029 -0.16383341
000190 1a 41 13 be d6 1c 36 3c 53 8f c5 3c a7 c2 9c be
       -0.14380303 0.011115273 0.024116194 -0.30617258
0001a0 6e 7e a4 bd cd b7 dc bc ae a9 06 3e 63 72 b6 be
       -0.08031927 -0.026943112 0.13150665 -0.35634145
0001b0 ef f6 92 bd c6 cd 1f be 1e e2 5d 3e 25 b5 01 be
       -0.07176005 -0.1560584 0.21668288 -0.12666757
0001c0 86 78 80 3d 40 10 18 be 48 3b 78 3d 27 91 c9 be
       0.06272988 -0.14849949 0.06060341 -0.39368555
0001d0 4f da bd be 80 b5 6c 3c ca 35 23 be d2 0c 8a be
       -0.3708062 0.01444757 -0.15938488 -0.26962906
0001e0 ae 2b 12 bd 27 3e 6a 3d 1c 7a 30 be bd 96 f0 3c
       -0.035686187 0.05718818 -0.17234081 0.029368753
0001f0 60 b9 b1 3e c0 8a 39 bd 61 b4 3b bd a5 62 b5 be
       0.34711742 -0.045298338 -0.04582632 -0.35426822
000200 f2 35 a6 be c8 28 b1 be 5e a2 2f 3e 33 90 b8 be
       -0.32463032 -0.34601426 0.17151782 -0.36047515
000210 cc 04 02 be 28 e8 81 bd e3 ac 0b 3e 97 ee 3c bd
       -0.12697142 -0.063431084 0.1364017 -0.046125975
000220 51 9b fb bc 3f 0d 2e 3d 86 c6 a1 be b3 a1 46 3e
       -0.03071371 0.0424931 -0.31596774 0.19397621
000230 6e 0b c7 3e ba bb 33 3e 0a 48 9d 3e b7 7b 26 3e
       0.38875908 0.17552081 0.30719024 0.16258131
000240 33 72 2c 3e aa f5 21 be d3 59 38 3e 0d 48 8d be
       0.16840439 -0.1581637 0.18003015 -0.27594033
000250 3f bd 04 3e 53 75 d5 bd 58 7e d4 bd c3 98 f4 be
       0.12962817 -0.104227684 -0.10375661 -0.47772798
000260 88 5d b6 3d ac 92 f1 3d 1a 5e 22 bd 84 1b 2d 3e
       0.089045584 0.117955536 -0.039640523 0.16905028
000270 80 f2 37 be 6b d8 21 be b4 d0 ac 3d f6 74 db be
       -0.179636 -0.15805213 0.084382445 -0.42862672
000280 46 c1 2e 3e fa 71 0e 3d 64 e4 6a be 03 48 61 3d
       0.17065915 0.034776665 -0.22938687 0.055000316
000290 1d 3b 63 3c cf 89 7e be f2 84 68 be 93 c1 3e 3e
       0.013869074 -0.24857257 -0.22706965 0.1862853
0002a0 2d 7d 18 3e 84 30 30 be bd a0 ef 3d 6f 75 97 3e
       0.14891501 -0.17206007 0.1170058 0.29581782
0002b0 df 7b 8e 3c 65 98 f0 be fd 5a 67 be 2c 5e b0 3c
       0.01739305 -0.46991268 -0.22593303 0.02152928
0002c0 d8 66 bc be 7f b4 9d bd 81 89 89 3e 44 33 06 3e
       -0.36797214 -0.077004425 0.2686272 0.13105494
0002d0 b5 44 19 3e 38 f0 75 bc 61 92 0b 3e 0f dc 91 3e
       0.14967616 -0.015010886 0.13630058 0.28488204
0002e0 11 8a 01 be 18 3c 41 be b5 fe 14 be 39 77 6b 3e
       -0.12650324 -0.1887058 -0.14550288 0.22994699
0002f0 2f 32 a3 3e 89 76 64 3e fa d6 1e be 76 3a aa be
       0.31874225 0.22310843 -0.15511695 -0.33247727
000300 9c ad 27 3e ab b8 1e 3d 7f 2f c2 3d 44 38 32 3d
       0.1637482 0.03875033 0.094817154 0.04351069
000310 7c ba 0c be 08 fd 01 be 4f 45 b1 be 50 05 c1 bd
       -0.13743013 -0.1269418 -0.3462319 -0.094248414
000320 e8 50 5b 3e b8 6c 86 bb 64 15 04 be 8d 8c 64 3e
       0.21417582 -0.0041023158 -0.12898785 0.22319241
000330 a1 33 51 be 02 87 22 3e 60 0a 09 be 93 5d 2b be
       -0.20429851 0.15871814 -0.13382864 -0.16734914
000340 6d 0e 16 bd dd c0 2f 3e 32 d5 60 be 03 17 1b be
       -0.03663485 0.17163415 -0.21956328 -0.15145497
000350 9a 69 84 bd cd ec 0e 3e 93 dd b4 3d 40 ee 99 3e
       -0.064654544 0.1395752 0.088313244 0.30064583
000360 8f 26 9d 3e 45 3a 01 be 9e 5b 09 3d 8c 19 0a be
       0.3069348 -0.12619884 0.03353464 -0.13486308
000370 6e 92 1b be 47 58 c5 be be 07 6b 3e 55 b7 43 be
       -0.15192577 -0.38543913 0.22952172 -0.19112904
000380 ef 70 3c be cf 61 26 be b4 2e c1 3e 83 c7 27 be
       -0.18402456 -0.16248249 0.37730944 -0.16384701
000390 ce 35 26 3e 05 17 16 3e 85 5b 14 be 51 bb 89 be
       0.16231462 0.14657219 -0.14488037 -0.26900724
0003a0 73 81 39 3e c7 6e e4 bc f2 9b 0a bc 62 fa 8f 3e
       0.18115787 -0.027884854 -0.008460032 0.28120714
0003b0 4f 26 b1 bd 6e ff 84 be 23 a3 9c be e2 6a 24 3e
       -0.08649885 -0.25976127 -0.30593213 0.16056398
0003c0 73 3b 90 3e 5d 0e 35 be 85 e8 ba 3d 49 c8 d2 bc
       0.28170356 -0.1768126 0.09126381 -0.025730269
0003d0 55 6f 85 be 87 42 82 3d 50 a4 82 3e 0d 63 84 3e
       -0.26061502 0.06360345 0.25515985 0.2585682
0003e0 f6 f1 1d 3e c6 10 28 3e 91 a6 40 3e 9d b0 ed bc
       0.15424332 0.16412649 0.1881354 -0.02901488
0003f0 1a 96 7d be 03 8b 88 3e a2 a2 ae bc 90 54 7d be
       -0.2476429 0.26668558 -0.021317784 -0.2473929

weight_hh_l0 f4 [32, 8]
000000 2a 5b 97 be cc 9f 83 3e 58 e4 a1 be c6 f6 6f bd
       -0.2956174 0.25707853 -0.31619525 -0.05858495
000010 99 bf 52 3e 26 ef 30 bd c1 aa ec bd 16 f2 cc 3e
       0.20580901 -0.04319682 -0.11556006 0.40028447
000020 93 78 10 bc 14 f9 83 be 22 86 b9 3d 13 37 a9 3e
       -0.00881781 -0.2577597 0.09058787 0.3304983
000030 cb 01 0a 3d 63 72 95 3e 49 c9 82 3e cf 0e 80 3c
       0.033693116 0.29188833 0.25544193 0.015632061
000040 d4 9b 7a be 77 ba 03 bf 84 bf de 3d 5a 61 09 3e
       -0.24473506 -0.514564 0.108763725 0.13416043
000050 53 bf c4 be 15 84 8e bd 20 74 07 be 4d f0 2d 3e
       -0.3842722 -0.069587864 -0.13227892 0.16986199
000060 68 4c ca 3c a7 c5 75 be 4e 0d f4 bd 53 c7 6d 3e
       0.024694636 -0.2400118 -0.119166 0.23220567
000070 37 da 91 be 65 b7 10 bc 2a 78 a0 3e a6 4a b3 bd
       -0.28486797 -0.008832787 0.31341678 -0.087544724
000080 df 58 e6 3d d4 bf b9 3d d2 5e 89 3c 56 d3 02 bd
       0.112474196 0.090697914 0.016768847 -0.031939827
000090 1b 38 d9 be e0 70 72 3e b6 11 38 be 71 03 e2 be
       -0.42425618 0.23675871 -0.17975506 -0.4414325
0000a0 64 65 18 3d d4 5a 5e bc 41 9a 36 bd 9d 88 5c bd
       0.03720607 -0.01357146 -0.0445807 -0.053841222
0000b0 41 3c f6 bd d5 37 b6 3d e5 34 be 3e b3 78 60 be
       -0.12023211 0.08897368 0.3714973 -0.21921043
0000c0 63 76 26 3e 56 30 5b be ac fe 3b bd c1 23 35 be
       0.16256098 -0.21405157 -0.04589717 -0.1768942
0000d0 1a 7c 78 be f0 3b 9e bd ee 77 62 3e aa 06 c2 bd
       -0.24266091 -0.07726276 0.22116062 -0.09473927
0000e0 1e 24 18 bd 78 6f 61 bd d6 bc 62 be 1f f9 a8 be
       -0.03714382 -0.055037946 -0.22142348 -0.33002564
0000f0 28 5b 27 bd 4a cf bf 3c be c5 02 3e 68 1d 87 3e
       -0.040858418 0.023414273 0.12770745 0.26389623
000100 65 ca 98 3d c0 6e 35 bc c1 26 8c bd d7 0d 47 3e
       0.07460479 -0.011073768 -0.06843329 0.19438873
000110 0b 23 18 3e 91 d5 8b 3e 02 0e 2a 3e d1 32 20 3f
       0.14857118 0.27311376 0.16606906 0.6257754
000120 71 e4 22 bd 08 e2 7d be 28 4e 80 3d 38 08 8f 3e
       -0.03976864 -0.24793255 0.06264907 0.27935958
000130 11 b1 5e 3e db 48 e7 bd c0 b5 98 3d 3b db 87 3e
       0.21747233 -0.11293193 0.07456541 0.26534447
000140 78 2c 8b 3e ec 3d 8a bd 57 3d 95 3e 60 3a ae 3d
       0.27182364 -0.06750092 0.2914836 0.08507228
000150 b5 fb f5 be 29 14 96 3e 82 66 e1 bd 87 f4 38 be
       -0.480436 0.29312256 -0.1100588 -0.1806203
000160 52 68 3d be 2c a1 d1 be 91 5a 8e bd 79 5f cb be
       -0.18496826 -0.40943277 -0.06950868 -0.39721277
000170 22 33 73 be 4c 3d 7f 3e 5d 5b 13 be fe 80 5e 3e
       -0.23749974 0.24925727 -0.14390321 0.21728894
000180 1e 3e 81 bc f9 96 c9 be a8 cb b8 3c 96 14 57 3d
       -0.01577669 -0.39372995 0.022558048 0.052509867
000190 39 be ef be 5d 00 9c 3d 23 0a 8a 3e ef fd cd be
       -0.46824816 0.07617257 0.2696086 -0.40232798
0001a0 90 68 cb bb 02 e6 b4 be c7 7f 81 be ae 9f 89 bd
       -0.006207533 -0.35331732 -0.252928 -0.067199096
0001b0 f7 48 58 3c c9 b7 8b 3c fb ec cf 3e 4b 37 6b be
       0.01320099 0.017055409 0.4061049 -0.22970311
0001c0 87 4a 61 be b2 65 7d be fa 43 88 be 69 d2 72 3e
       -0.22001086 -0.24745825 -0.26614362 0.23713078
0001d0 2c 3c 83 be 44 ba 58 3e f5 8e 22 be 38 46 11 be
       -0.25631845 0.21164805 -0.15874846 -0.14186943
0001e0 3c e9 3c be de b4 57 be a3 a2 b5 3e a6 83 a7 3e
       -0.18448347 -0.21065089 0.35475644 0.32717627
0001f0 90 af 75 be b7 09 46 bd 7e c3 cc bd 01 6b b7 3e
       -0.23992753 -0.04834911 -0.09998225 0.35823825
000200 be c2 7c be d7 3f 7b 3e 16 9e 44 bd 8e 90 28 be
       -0.24683663 0.24536072 -0.048002325 -0.16461393
000210 36 1c e4 3e b5 29 07 bd 63 94 4b be 7a ff 04 3f
       0.44552773 -0.03299876 -0.19880824 0.51952326
000220 34 93 d0 3d be 79 b7 be de 53 4d bd 03 34 69 3e
       0.10184327 -0.3583507 -0.05012881 0.22773747
000230 c9 78 64 3e 0a 42 30 be ee 98 64 bd c8 66 6c be
       0.22311701 -0.17212692 -0.055809908 -0.23086083
000240 a3 59 1a 3e 02 ae 4b 3e d0 06 03 3e 72 47 81 3d
       0.15073256 0.19890597 0.12795568 0.06312455
000250 75 14 38 be 26 96 18 3e 99 f9 33 bd 07 fb b4 3e
       -0.17976554 0.14901027 -0.043939207 0.3534777
000260 77 20 88 be 56 45 09 be 3c e9 44 be 86 af f1 bc
       -0.2658727 -0.13405356 -0.19229597 -0.029502641
000270 6f e2 9b 3e 61 b7 51 3e d5 c9 9b bd 9c 87 1c 3e
       0.30446193 0.2048011 -0.07606856 0.15286106
000280 3a b5 03 3e 08 ab 2b 3e 71 79 bb bd df bd a9 3e
       0.12862101 0.16764462 -0.091540225 0.33152673
000290 17 f7 b8 be d7 39 14 3e 19 35 81 be fb 16 9b 3d
       -0.36126015 0.14475189 -0.25235823 0.075727426
0002a0 66 f1 ca be dc 21 ad be 62 37 17 bb 3a 32 d4 3b
       -0.39637297 -0.33814895 -0.0023073782 0.006475714
0002b0 ab 94 a4 bd fb c6 a9 be 1e 1d 94 bd f2 97 c1 bd
       -0.08036169 -0.33159623 -0.07232116 -0.094528094
0002c0 bb 8f 80 3e dd 28 82 3c c7 5b 3a bd 1b f0 82 3e
       0.25109658 0.015888626 -0.045497682 0.2557381
0002d0 cd 96 93 3e 7d 81 07 bd e4 24 1a be 87 66 79 3d
       0.2882599 -0.033082474 -0.15053135 0.060888793
0002e0 28 0e 34 bd b5 62 3a be 14 b4 d7 bd 98 4f 8b 3e
       -0.043958813 -0.18201716 -0.10532394 0.27209163
0002f0 7a 75 6e be a7 28 60 3d c9 8b cb 3e 2e d3 4d 3e
       -0.23287001 0.05472627 0.39755085 0.2010009
000300 d1 e2 37 3e 82 aa 44 be 2a 79 9f bd 2b f0 7e 3d
       0.17957617 -0.19205669 -0.07786782 0.06224076
000310 46 36 25 be 37 25 b9 be 74 0c 24 3e 66 fb 2f 3d
       -0.16133985 -0.36161205 0.16020375 0.04296436
000320 1f 26 11 be 26 0b 50 3e 2b 2f 30 3e 8c 27 b7 be
       -0.14174698 0.20316753 0.17205493 -0.3577236
000330 1e 63 44 3c ba 54 04 3d 7e af 6f bd a7 b0 62 be
       0.011986522 0.032307364 -0.05851697 -0.221377
000340 6c 68 27 bd 3c 9c 0e bf 03 b2 67 3e 6f d0 7a 3e
       -0.04087107 -0.55707145 0.226265 0.24493574
000350 22 27 21 bf 9c b2 a4 bd 11 fa 28 be b1 1b 53 be
       -0.62950337 -0.080418795 -0.16501643 -0.20616032
000360 02 7e d7 be 25 78 d2 3c 89 2e 0f 3e 49 85 fe 3d
       -0.42088324 0.025692055 0.13982596 0.12427766
000370 dd 9b 5a 3e a8 e3 16 3d 0a 71 6b bd 2d 7c 4f 3e
       0.2134852 0.036838204 -0.05748085 0.20262213
000380 a7 df 3d 3e a2 e2 84 3d 88 96 e7 3e 55 e2 17 3d
       0.18542348 0.06488539 0.45232034 0.03708108
000390 77 b8 dd bd 29 86 a1 3e 68 f5 86 3d f7 60 a5 bd
       -0.108261995 0.3154767 0.06589776 -0.08075135
0003a0 b9 1b a1 be ac 59 54 be 64 5c 77 be ee 10 6f be
       -0.31466463 -0.20737332 -0.24156338 -0.23346302
0003b0 cb b8 93 be 3c ea 51 3d d5 d7 65 bd ac a5 ac 3c
       -0.28851923 0.051248774 -0.056114037 0.021075092
0003c0 eb 3d 6d 3e dd 4c 88 bd 60 84 43 3e c3 77 ff bc
       0.23168151 -0.066552855 0.19093466 -0.031185037
0003d0 e2 2f 66 3e 96 65 e8 3d 86 cb a3 3e d3 e3 98 be
       0.22479203 0.11347501 0.31991214 -0.29861316
0003e0 aa 85 82 3d 3f 1c 58 3e a0 e9 75 be be 59 8e 3d
       0.06373151 0.21104525 -0.24014902 0.06950711
0003f0 b4 42 12 be 48 a6 6f 3e 10 e1 d9 3e ea 09 c4 bd
       -0.14283258 0.23403275 0.42554522 -0.095722035

bias_ih_l0 f4 [32]
000000 27 0c 92 be 79 cd 82 be de ff 7d 3e 38 69 88 be
       -0.28524897 -0.25547388 0.24804637 -0.26642776
000010 49 ff 2e be dd f1 8b 3d 72 a4 73 3e 23 fd b1 be
       -0.17089571 0.06833241 0.237932 -0.3476344
000020 de e1 e4 bd 34 40 77 be ce c8 ae be ed d6 1c 3e
       -0.11175893 -0.24145585 -0.34137577 0.15316363
000030 08 09 02 3e 33 f8 61 be 8f 92 06 3e 8b c3 5e 3c
       0.12698758 -0.22067337 0.13141845 0.013596426
000040 f7 a2 6b 3e 90 ad 52 3e 48 3f 08 3c 39 a8 c2 be
       0.23011385 0.20574021 0.008315869 -0.3801897
000050 bd 9b dc 3e 38 90 16 be b4 96 e3 3d e5 32 41 3e
       0.4308757 -0.14703453 0.11112729 0.18867071
000060 73 83 02 3e 21 61 81 bd 2a dc 38 3d 02 d4 c8 3c
       0.12745456 -0.06317354 0.04513184 0.024515156
000070 43 7a 90 3e 46 c8 73 be 95 69 a4 3e 73 f5 07 3e
       0.28218278 -0.23806867 0.32111803 0.13277225

bias_hh_l0 f4 [32]
000000 2c e6 4a bc ad 77 0a 3d 8f a8 e5 3d 80 0c 4c be
       -0.012383979 0.033805538 0.112137906 -0.19926643
000010 5d f9 64 3e 5e 5e 60 3e 70 15 ea 3c 33 fa 77 3e
       0.2236075 0.21910998 0.028574675 0.24216537
000020 66 96 b7 bd ba 63 62 be ad 7f 0c bc 96 2f c8 be
       -0.08964233 -0.22108355 -0.008575362 -0.39098805
000030 94 fc 2f bd 52 6d 99 be 19 93 64 3e ae 6c 89 3e
       -0.042965487 -0.29966217 0.22321738 0.2684073
000040 f3 a3 07 bc 63 3a f0 3d c8 76 88 be 36 49 ea 3d
       -0.008278835 0.117298864 -0.26653123 0.11439745
000050 49 27 1f 3d 30 7c 99 be 28 17 53 3d 52 c7 fe 3d
       0.038855825 -0.2997756 0.051535755 0.12440361
000060 77 b6 e7 3d b0 1c e9 bd e1 94 15 3e d6 ca 06 be
       0.11314099 -0.11382425 0.14607574 -0.13163313
000070 24 12 d2 3c 66 a9 aa 3c 5b da 5e be f1 2a 85 bd
       0.025643416 0.020832729 -0.21762984 -0.06502331

weight f4 [1, 8]
000000 31 9e e4 3d aa 23 1c be ad db 2c 3e e2 90 73 3d
       0.11162985 -0.1524798 0.16880675 0.059464343
000010 45 32 5b be 3a 1f f6 3d c4 83 47 3d a8 5d d8 bd
       -0.21405895 0.12017675 0.048709646 -0.105647385
