models/stock_lstm_state_dict_backtest.pt (torch, 246887 bytes, 7 tensors)

encoder.weight f4 [12, 3]
000000 02 c6 d0 3d e2 bb f9 3e 6b f5 ea be c6 91 ac be
       0.10194017 0.48776156 -0.45890364 -0.33704966
000010 ce 1f 6f 3e 30 66 48 3e 6d 24 21 3e e0 9e b3 be
       0.23351976 0.19570231 0.15736552 -0.3508215
000020 01 dc 9d 3e 01 e2 f5 3e 57 03 b9 3e ad 8c 08 be
       0.30831912 0.4802399 0.3613536 -0.13334914
000030 81 16 87 3e a7 db 71 3e f1 d9 8b be df 3d 8f 3e
       0.26384357 0.23618947 -0.27314714 0.2797689
000040 1d ef 96 bd 30 a3 76 be 2e 83 09 3e d6 64 ac be
       -0.07369826 -0.24085689 0.13428947 -0.33670682
000050 41 f3 70 ba 89 c8 60 3d bc 52 e9 bc 8f ef 16 be
       -0.0009191521 0.054878745 -0.028481834 -0.14739822
000060 11 53 ea bd 67 72 c7 3e b7 85 56 3e d9 54 de 3d
       -0.11441625 0.3895447 0.20949446 0.10856027
000070 8e 5d e3 bd e2 3e 88 be 3b 05 a8 3e 58 f9 0a be
       -0.111018285 -0.26610476 0.3281649 -0.1357168
000080 71 ca 61 be 94 d7 55 be 8b b1 80 be da 92 0e 3d
       -0.22049882 -0.20883018 -0.25135455 0.034808017

encoder.bias f4 [12]
000000 e9 f1 56 3e fb 6d 18 bf 98 0b f8 3d ea 28 09 3e
       0.20990719 -0.59542817 0.12111586 0.13394514
000010 6e 29 0e bf df b9 5b be 1d b1 91 3e 36 d2 d7 bd
       -0.55531967 -0.21457623 0.2845544 -0.105381414
000020 37 c4 c9 3d 8c f2 00 bf ef 93 64 be de 6c 05 bf
       0.09851878 -0.503701 -0.22322057 -0.52119243

lstm.weight_ih_l0 f4 [32, 12]
000000 f8 fe 90 be 52 18 02 bd 14 97 25 3e 61 43 a8 3e
       -0.28319526 -0.031761475 0.16170913 0.32863906
000010 a2 aa 34 3e 28 e1 c5 3e 01 7a f5 bd 8c 4b 98 bd
       0.17643216 0.38648343 -0.11986161 -0.074362844
000020 d3 af f3 bc ed 0c 9e 3e e5 06 21 3e 06 e7 90 bd
       -0.029746925 0.30869237 0.15725286 -0.07075314
000030 2f e6 86 be b6 1f b8 3e 8c 3c c2 be b7 52 1c be
       -0.2634749 0.35961694 -0.3793682 -0.15265928
000040 f6 47 9c 3e aa be 08 bf 43 d4 22 be be 67 25 3d
       0.30523652 -0.5341593 -0.15901284 0.04038214
000050 8d 5e 27 3e 78 f9 97 be 79 fc 09 3d 87 b9 33 be
       0.16344662 -0.29682517 0.033688042 -0.17551242
000060 0e 48 68 3c b0 fb 0d 3e 1f 47 46 be fa 15 4e 3e
       0.014177335 0.13865542 -0.19363068 0.20125571
000070 5d b2 91 be 21 83 84 be a3 66 b8 3d 62 e7 36 be
       -0.28456393 -0.25881293 0.090039514 -0.17861703
000080 82 be 80 3e 61 72 9a be 71 49 7a 3e fa 36 44 be
       0.25145346 -0.3016539 0.24442078 -0.19161597
000090 43 ea 0c 3e 18 e2 a4 bc f7 47 94 3e 52 77 b1 bd
       0.13761239 -0.020127341 0.28961155 -0.08665337
0000a0 f7 e0 ca be eb 02 b8 be dd 4c 8a 3d 45 af 01 3e
       -0.3962476 -0.35939726 0.06752942 0.12664516
0000b0 38 74 47 3e b1 6f 92 be 1a c2 0e 3e 11 7c 2f 3e
       0.19477928 -0.2860084 0.13941231 0.17137171
0000c0 79 b2 b1 bd 69 6b a5 3d d4 ff 72 be d7 13 19 3d
       -0.08676619 0.080771275 -0.23730403 0.037372436
0000d0 c6 84 36 be 1a 73 ce bd 45 db d7 bd 17 db e1 bd
       -0.17824087 -0.10080548 -0.10539869 -0.11028116
0000e0 d4 4d 15 bc 25 cf 88 be 72 4b 08 3d 48 08 db 3d
       -0.009112794 -0.2672054 0.033275075 0.10694939
0000f0 f3 f7 a4 3d ca c5 be 3d e8 da cc bd 5e fb 85 3e
       0.08055105 0.09315069 -0.100026906 0.2616834
000100 f9 d4 37 bd 79 36 21 be bf 06 da be 15 cf 2f 3e
       -0.04488084 -0.15743436 -0.42583272 0.1716884
000110 d7 72 5f 3d 3b 18 70 be cb 54 a5 3e 61 0a ba bc
       0.05455288 -0.23446743 0.32291254 -0.022710027
000120 3b 65 17 3e 99 a8 41 3e f6 ac 55 3e 44 b6 af 3c
       0.1478471 0.18911971 0.2086676 0.021449216
000130 06 c6 91 be c5 b3 c3 3d 37 53 97 3e 14 21 8c bd
       -0.28471392 0.09555773 0.29555675 -0.06842247
000140 8b c7 cc 3d 27 54 90 be b2 81 82 be ad 5c 36 be
       0.09998997 -0.28189203 -0.25489575 -0.1780879
000150 a7 bf 69 3e 71 d4 b0 bd d2 19 94 3e 5c de 71 3d
       0.22827016 -0.0863427 0.2892595 0.05904995
000160 2a 3e 27 3e 0a 44 8d 3d f4 dc 89 3d c0 f6 61 be
       0.16332307 0.06897743 0.067315966 -0.22066784
000170 f2 2a 2f 3d 9a 08 c0 bd 2c cb d8 3e d7 e4 87 be
       0.042765565 -0.093766406 0.42342508 -0.26541778
000180 90 fa 86 be 13 f1 94 3d 10 e7 ea 3d 36 67 76 be
       -0.2636304 0.07272544 0.11469853 -0.2406281
000190 5d 4f f6 bd a4 2b bd bc d9 1f c2 3d f3 be ac be
       -0.12026856 -0.023092099 0.09478731 -0.33739433
0001a0 f9 5a 14 be 96 a6 8f bd c2 21 80 3e cb 1b a6 be
       -0.14487828 -0.070141956 0.25025755 -0.3244308
0001b0 eb ef c5 bd 08 40 f9 bd 61 99 8a 3e df e3 39 be
       -0.09664901 -0.12170416 0.27070144 -0.18153332
0001c0 24 06 b9 3c ae ef 4d be 2d ed c0 3d 66 98 d2 be
       0.022585936 -0.20110962 0.09420238 -0.41131896
0001d0 d7 f5 ba be 78 82 e9 bc d8 6c ec bd 36 ce 7c be
       -0.36515686 -0.028504595 -0.11544198 -0.24688038
0001e0 6a ee 3f bc c4 ba 68 3d 0d 52 1b be cd 75 4f 3c
       -0.011714557 0.05681874 -0.15168019 0.012662363
0001f0 b0 d7 bf 3e 39 13 ae bd 51 07 d3 bd 6f e5 bd be
       0.37469244 -0.0849976 -0.1030413 -0.37089106
000200 21 b2 a9 be c7 63 c7 be 41 1c 34 3e 96 6a df be
       -0.33143714 -0.38943312 0.17588903 -0.43636006
000210 5f d3 8e bd 38 6b e7 bd 38 3c 33 bc 7e 5b f7 bc
       -0.069739096 -0.11299747 -0.01093965 -0.030194994
000220 9b 9b 2a 3d 4f 4f 57 3c 77 7a 96 be 7d 37 23 3e
       0.041652303 0.013141467 -0.29390308 0.15939136
000230 24 6e 8c 3e bc f2 6c 3e d2 eb 9c 3e 29 1f 42 3e
       0.2742778 0.23139471 0.30648667 0.18957199
000240 85 17 15 3e a8 7a 09 be 08 ae 3e 3e 2c 47 87 be
       0.14559753 -0.13425696 0.18621075 -0.26421487
000250 17 b6 f4 3d 28 df d5 bd 3d 16 d6 bd b4 68 f9 be
       0.119487934 -0.10442954 -0.1045346 -0.48712695
000260 99 f4 91 3d a0 64 f8 3d 89 f3 1e b7 22 12 1e 3e
       0.071267314 0.12128568 -9.474236e-06 0.15436605
000270 c3 70 27 be de 62 08 be 53 ef 73 3d 0f 67 f0 be
       -0.16351609 -0.13318965 0.05955441 -0.46953627
000280 6f 75 0a 3e b2 bf 80 3d 91 36 52 be 60 bb 89 3d
       0.1352136 0.06286563 -0.20528628 0.06725192
000290 56 c1 98 bd 43 5b 55 be f5 2c 5c be 85 84 5b 3e
       -0.07458751 -0.20835595 -0.21501525 0.21437271
0002a0 de 59 0a 3e ea 65 52 be 21 4b 15 3e d4 71 95 3e
       0.13510844 -0.2054669 0.1457944 0.29188406
0002b0 4a 67 30 3c 94 f8 f1 be 87 24 6b be 9d 30 ac bb
       0.0107668135 -0.47259963 -0.22963153 -0.0052548186
0002c0 e4 0e dd be a9 2f 13 bd 25 56 7b 3e 03 f1 0b 3e
       -0.43175423 -0.035934124 0.2454458 0.13666157
0002d0 c8 ca 64 3e f2 16 af bd f4 13 b0 3c 04 bc 84 3e
       0.2234298 -0.08549298 0.02149389 0.25924695
0002e0 10 06 fe bd 10 cc 46 be 4a 7d 4d be 19 2e 48 3e
       -0.124035 -0.19413781 -0.20067325 0.19548835
0002f0 95 e4 b2 3e 50 4e 80 3e e7 cb 26 be 84 37 a8 be
       0.3494002 0.25059748 -0.1628872 -0.32854855
000300 93 48 32 3e 77 40 05 3d 4c 01 a3 3d 14 09 76 3d
       0.17410497 0.03253218 0.07959232 0.06006725
000310 ae 95 25 be 2f d8 0a be 6c d5 b5 be e1 e2 c0 bd
       -0.1617038 -0.1355903 -0.3551439 -0.09418274
000320 78 38 5a 3e 48 62 bb bc 40 61 10 be b9 ec 51 3e
       0.21310604 -0.022874013 -0.14099598 0.20500459
000330 2a 5e 5b be 36 ce 25 3e 16 51 d5 bd 8d a3 2e be
       -0.2142264 0.16191944 -0.104158565 -0.17054577
000340 5b ea fa bc d3 ef 4d 3e da 38 5f be 6d 5f 2b be
       -0.030629328 0.20111017 -0.21799031 -0.16735621
000350 2b 16 a4 bd c5 a1 de 3d fc 96 04 3e d6 df 8b 3e
       -0.08012041 0.10870699 0.12948221 0.2731921
000360 dc ac 96 3e 7c 99 0a be 1d e7 22 3d a3 02 04 be
       0.29428756 -0.13535112 0.039771188 -0.12891631
000370 10 2f fa bd 3e fe c2 be 46 b1 38 3e 66 d3 59 be
       -0.12216008 -0.38084596 0.18036374 -0.21272048
000380 26 cb 40 be 85 cd 3f be 23 36 c8 3e 29 fe 37 be
       -0.18827495 -0.18730743 0.39103803 -0.17968048
000390 14 1e 01 3e 4b 29 0b 3e ba 49 0b be da 5e 82 be
       0.1260913 0.13589971 -0.13602343 -0.2546299
0003a0 76 2d 42 3e 85 99 83 bd 57 6b 03 bd dd 9e 86 3e
       0.18962654 -0.06425766 -0.03208479 0.26293078
0003b0 62 b6 d9 bd 50 05 89 be 3d eb b2 be ad fd 17 3e
       -0.1063049 -0.26761866 -0.34945098 0.14842863
0003c0 a6 f8 8c 3e b8 61 43 be e5 1f b5 3d d9 0f 09 bd
       0.27533454 -0.19080245 0.08843974 -0.03346238
0003d0 b1 02 64 be cc d4 8e 3d c8 0f 81 3e 2d 7e 8f 3e
       -0.22266652 0.069741815 0.25207353 0.28025952
0003e0 89 e2 ea 3d 79 bf 1e 3e 81 e6 0d 3e 6a fc 65 bc
       0.114689894 0.15502729 0.13857462 -0.014037231
0003f0 de db 72 be fe b0 7b 3e 56 61 4a bd e4 11 78 be
       -0.23716685 0.24579236 -0.049409233 -0.24225575

lstm.weight_hh_l0 f4 [32, 8]
000000 92 44 b2 be 2e 9b bc 3e f0 a6 b1 be e5 19 18 be
       -0.3481794 0.36837143 -0.34697676 -0.14853628
000010 6d 45 34 3e 91 b1 1e bd 75 7e 1c be 75 96 cf 3e
       0.17604609 -0.03874356 -0.15282615 0.40544477
000020 c9 dd b7 3c 1b 63 8a be 34 35 1d 3e 53 a1 b1 3e
       0.022444623 -0.27028736 0.15352327 0.34693393
000030 88 07 45 bc 47 b2 b6 3e f2 81 cc 3e ba 48 7e 3c
       -0.012025721 0.3568289 0.3994289 0.015520269
000040 0e f2 41 be dd 68 04 bf 08 22 22 3e ba 70 37 3e
       -0.18939993 -0.5172251 0.15833294 0.17914096
000050 1a ec d2 be 13 91 83 bd 2b d1 de bd 2f a2 eb 3d
       -0.41195756 -0.06424155 -0.108797394 0.115055434
000060 63 19 46 3d 73 38 a7 be c9 2c 97 bd 3a ba 9f 3e
       0.048364054 -0.32660255 -0.07381589 0.31196767
000070 46 f1 a8 be 34 d4 87 3d 03 09 c6 3e 92 d1 25 be
       -0.32996577 0.066322714 0.3867875 -0.16193226
000080 55 66 0b 3e 85 e5 f7 3d af ed 48 3d 7c 7e e4 bc
       0.13613255 0.12104324 0.049054798 -0.027892344
000090 7b 94 ed be 42 3e 77 3e 58 fa 25 be 58 49 ee be
       -0.46402344 0.24144843 -0.1620878 -0.46540332
0000a0 7f 7d aa 3d 5f 9f 03 bd 8d 0d a7 bb 34 82 a7 bd
       0.08324718 -0.03213441 -0.005098051 -0.08179131
0000b0 8a ca 30 be bc eb d4 3d 91 84 b6 3e 76 9a 89 be
       -0.17264763 0.10396525 0.35648015 -0.26875657
0000c0 bf a4 d8 3d 78 f6 76 be 20 9d b0 bd 85 d7 dc bd
       0.10578298 -0.24117458 -0.08623719 -0.107832946
0000d0 c7 2b 85 be 02 0c 39 bd d6 82 8c 3e ba e8 7c be
       -0.26009962 -0.045177467 0.2744357 -0.24698153
0000e0 65 89 f3 bd f8 6c 00 bd bb bd 77 be c3 0e 90 be
       -0.1189144 -0.03135392 -0.2419347 -0.28136262
0000f0 b2 62 cf bd 49 17 e1 3c e3 5f d6 3d 64 a4 93 3e
       -0.101262465 0.027476924 0.10467508 0.28836358
000100 70 3f bd bd 51 5e c8 3d 25 29 79 3b 0d cf 82 3d
       -0.09240615 0.097836144 0.0038018909 0.06387148
000110 06 74 d5 3d 54 2c ab 3e c4 de 29 3e 73 8c 3e 3f
       0.1042252 0.33432257 0.16588885 0.7443306
000120 e2 06 eb bd 05 ef 67 be da 52 f0 3d e9 90 87 3e
       -0.11475922 -0.22649772 0.11734553 0.26477745
000130 19 3e 42 3e a4 e3 26 bd aa fb f8 3d 8b 1e 62 3e
       0.18969001 -0.04074444 0.12157376 0.22081964
000140 d5 a6 a9 3e c5 b9 86 bd e7 2c a8 3e cd ea ef 3d
       0.33135095 -0.065784015 0.32846758 0.117147066
000150 d8 81 05 bf 97 69 9a 3e 7e cb c9 bd ff 58 53 be
       -0.5215125 0.30158684 -0.09853266 -0.20639418
000160 93 b0 81 be 12 f0 cd be cf 2e 36 bc 5c 39 ec be
       -0.25330028 -0.40222222 -0.0111195585 -0.46137512
000170 89 7c 8d be b1 48 94 3e 4d 7f c6 bd d3 14 88 3e
       -0.27634075 0.2896171 -0.096922494 0.26578388
000180 58 97 48 3b ac 9e b3 be ed 9e 9a 3d 22 69 4c 3d
       0.0030607786 -0.35081995 0.07549844 0.04990495
000190 c0 42 02 bf 01 ac c2 3d 2d 21 8d 3e 1f 9c d4 be
       -0.508831 0.095054634 0.27564374 -0.4152536
0001a0 30 e1 89 3d cc bf b1 be ff 42 77 be 18 00 3e bb
       0.06732404 -0.34716642 -0.2414665 -0.0028991755
0001b0 08 32 60 bb 39 f7 c0 3c 0f 31 dc 3e 25 a4 86 be
       -0.0034209508 0.023555385 0.4300618 -0.26297107
0001c0 55 e8 37 be 21 05 80 be 28 35 64 be e9 21 8b 3e
       -0.17959721 -0.25003913 -0.22285903 0.2717431
0001d0 ff 15 8b be 3c 32 57 3e 23 c9 3c be d7 a2 21 be
       -0.2716522 0.21015257 -0.18436103 -0.15784775
0001e0 59 ff 53 be f5 ef 8e be 18 35 ab 3e e2 2d 8c 3e
       -0.20702876 -0.27917448 0.33438945 0.27378756
0001f0 28 4b 8b be 9a ee 3e bd df 3f 07 be e1 af d0 3e
       -0.27205777 -0.046614267 -0.13207959 0.40759185
000200 13 bf a1 be 57 75 4e 3e 0b 59 8f bd 05 b0 46 be
       -0.3159109 0.20161949 -0.069994055 -0.19403084
000210 77 4a eb 3e 8c 84 c6 bc 04 8b 50 be c1 da 11 3f
       0.4595525 -0.024233125 -0.2036553 0.56974417
000220 c5 e4 c2 3d 7a 12 b7 be 90 65 d4 3c dc 1f 90 3e
       0.095162906 -0.35756284 0.025927335 0.28149307
000230 e8 73 2f 3e 2c 14 f9 bd 97 5f 66 3c 84 bf 77 be
       0.17134058 -0.121620506 0.014060876 -0.24194151
000240 a9 2c 2a 3e db 3f 3c 3e 61 db c0 3d 9b 59 48 3d
       0.16618599 0.18383734 0.09416843 0.04891358
000250 6a 81 27 be 42 d1 1b 3e 4c 5f 91 bd 90 21 c7 3e
       -0.16357961 0.15216544 -0.070982546 0.38892794
000260 3e 69 8d be 97 e7 51 be b4 02 5e be 24 38 08 be
       -0.27619356 -0.20498501 -0.21680719 -0.13302666
000270 e3 ea a5 3e 8a 85 3d 3e cd 2f 12 be a8 79 42 3e
       0.32405767 0.18507972 -0.14276047 0.1899172
000280 f4 9f 4a 3e d4 7a 37 3e c4 ca a7 bd 15 c8 b4 3e
       0.1978758 0.17917949 -0.08192971 0.353089
000290 be 95 b9 be 5e d0 01 3e 1c d0 78 be 67 5d 69 3d
       -0.36247057 0.12677142 -0.24298137 0.05697384
0002a0 0e 5a e9 be f0 7a a5 be bb a2 2a bd ac 56 14 bc
       -0.4557652 -0.32320356 -0.041659098 -0.009053867
0002b0 8b e5 5b bd 17 ca a9 be 88 6a 8b bd 8c 6a 61 bd
       -0.053685706 -0.33161995 -0.068074286 -0.05503325
0002c0 32 e1 72 3e 93 46 a2 bc e3 cf 29 bd 49 b4 7a 3e
       0.23718718 -0.019809043 -0.04145802 0.24482836
0002d0 f7 7e 9b 3e 53 74 d2 bc 5d 79 41 be eb ed c0 3d
       0.30370304 -0.025690233 -0.18893953 0.09420379
0002e0 70 c9 b9 bc 2f 48 79 be 9d 4a 6d bd 93 aa a1 3e
       -0.02267906 -0.24343942 -0.057932485 0.3157545
0002f0 71 f4 75 be 8d d4 4e 3d 00 7f f6 3e b9 07 7a 3e
       -0.24019028 0.050495673 0.48143768 0.24417008
000300 de ad 50 3d dd de 74 be 7c 61 b5 bd e5 63 41 3b
       0.050947063 -0.2391314 -0.08856484 0.0029509005
000310 c0 1a 32 be bd 47 ab be e3 b1 46 3e 1e c9 9d 3d
       -0.17393017 -0.3345317 0.19403796 0.07704376
000320 1c 36 53 be c0 5f a6 3d 21 95 a0 3e d0 7b d5 be
       -0.2062611 0.081237316 0.31363776 -0.41696024
000330 85 8b 53 bd 49 47 d2 3d e8 a6 85 3b 1c f7 ff bd
       -0.051646728 0.10267503 0.0040787347 -0.12498304
000340 df e0 14 3c 36 b2 10 bf d5 9e 8d 3e ca d7 90 3e
       0.009086817 -0.5652193 0.27660242 0.28289634
000350 83 19 29 bf c1 44 a5 bd 6d 84 17 be 13 70 7f be
       -0.6605455 -0.080697544 -0.1479661 -0.24945097
000360 61 dc b9 be 21 8a 16 bd 3d 0b 65 3e 8e 07 f2 3d
       -0.36300948 -0.036752824 0.22367568 0.11817847
000370 19 67 1e 3e 4f b3 82 3d be 32 ee bd 94 d7 25 3e
       0.15469016 0.06381857 -0.11630772 0.16195518
000380 fb 3e 41 3e 0e e1 f1 bc 07 00 01 3f ac 93 58 bd
       0.18871681 -0.02952626 0.50390667 -0.052875206
000390 8d 9c 1d be 96 a7 9b 3e 09 f7 2c 3d e5 05 00 be
       -0.1539175 0.30401295 0.04222778 -0.12502249
0003a0 81 d6 8a be 19 4c 43 be 02 6f 45 be 65 b1 62 be
       -0.27116778 -0.19071998 -0.19280627 -0.22137983
0003b0 d7 98 a6 be 19 c3 7d 3d 0b 69 1f bd 49 f5 86 bb
       -0.32538483 0.061953638 -0.038918536 -0.0041185957
0003c0 b7 e1 6d 3e 8a 67 bb bd 1d 62 6a 3e 6c 43 10 3d
       0.23230635 -0.09150608 0.2288899 0.03522055
0003d0 bc 58 54 3e b5 63 d1 3d 8e 8f 91 3e c7 ec d9 be
       0.20736974 0.10224096 0.28429836 -0.4256346
0003e0 48 2b 41 bd 01 79 34 3e 22 05 a9 be c8 ea 81 3d
       -0.047160417 0.17624284 -0.3301173 0.06343609
0003f0 40 df 33 be a5 dd 72 3e ff c9 f0 3e 3c 03 d5 bd
       -0.17565632 0.23717363 0.4702911 -0.104010075

lstm.bias_ih_l0 f4 [32]
000000 a2 41 9a be 62 c2 a3 be 13 a2 78 3e 52 e4 a4 be
       -0.301282 -0.3198424 0.24280576 -0.32205445
000010 a3 4b 38 be d6 5e 34 3d 69 78 5c 3e 0a 19 b4 be
       -0.17997603 0.044035755 0.21530308 -0.35175353
000020 3d fb 0b be cc f4 89 be db 89 c0 be 8b 5c fa 3d
       -0.13670059 -0.26944578 -0.37605175 0.122246824
000030 45 8c c5 3d 7b 87 6b be 40 0b e5 3d cb 04 aa bb
       0.09645895 -0.230009 0.111837864 -0.0051885596
000040 cd 13 66 3e 4d 62 3e 3e ee 92 b2 bc f1 5d c5 be
       0.22468491 0.18592186 -0.021798577 -0.38548234
000050 c7 53 ec 3e b2 3b 1f be 06 e4 ca 3d bd db 45 3e
       0.46157667 -0.15550116 0.09906773 0.19322105
000060 ff f0 e4 3d a5 b9 01 be 6c 25 f8 3c 9e 37 fe bb
       0.11178779 -0.12668474 0.030291282 -0.007758095
000070 9c 9a 8a 3e f1 de 84 be b9 7b 9b 3e 2d db 02 3e
       0.27071083 -0.2595134 0.3036783 0.12778921

lstm.bias_hh_l0 f4 [32]
000000 d0 c9 e8 bc 14 60 fa bc 42 ed da 3d 72 81 82 be
       -0.028416544 -0.030563392 0.106897846 -0.25489384
000010 03 ad 5b 3e 15 7d 47 3e 53 d5 c2 3b 24 c3 73 3e
       0.21452717 0.19481309 0.0059458404 0.23804909
000020 30 ab ea bd 3e 0d 7f be 80 28 31 bd 0c 04 d8 be
       -0.11458433 -0.24907395 -0.043251514 -0.42190588
000030 15 84 96 bd aa 34 9e be 11 86 50 3e 15 9d 7f 3e
       -0.073494114 -0.30899554 0.20363642 0.24962266
000040 55 99 60 bc af a3 c7 3d ce e1 97 be 4b 72 df 3d
       -0.013708432 0.09748017 -0.29664463 0.109104715
000050 f5 73 8e 3d 29 d2 9d be d0 b1 21 3d 7d 0c 04 3e
       0.06955711 -0.30824402 0.039476216 0.12895389
000060 91 a0 c7 3d 6d 97 35 be 87 62 06 3e 16 d7 27 be
       0.097474225 -0.17733546 0.13123523 -0.16390643
000070 5d 2f 68 3c 78 72 20 ba de b5 70 be 62 5f 8f bd
       0.014171449 -0.0006120573 -0.23506877 -0.07000615

linear.weight f4 [1, 8]
000000 8a a3 ca 3d ee c2 07 be 0c 97 17 3e 00 f5 5d 3d
       0.09894474 -0.13257954 0.14803714 0.05418873
000010 64 8d 47 be dd d3 d0 3d c6 6c 2f 3d 29 88 af bd
       -0.1948753 0.1019666 0.042828344 -0.08570892
