models/stock_lstm_backtest.pt (torch, 166488 bytes, 7 tensors)

weight f4 [8, 6]
0	0xbdd5997c	-0.104296654
1	0x3e4d1358	0.2002691
2	0xbeb25a0c	-0.34834325
3	0xbe96fc66	-0.2948944
4	0x3ec36738	0.38164687
5	0x3d4e4451	0.05035812
6	0xbde6b8b5	-0.11265699
7	0x3eb54987	0.3540766
8	0xbe4b6e0c	-0.19866198
9	0x3defb2f9	0.11704058
10	0xbe66289f	-0.22476433
11	0xbe8e6b42	-0.27816206
12	0x3e3e4099	0.1857933
13	0x3dcb9de0	0.09942222
14	0xbd40da93	-0.04708345
15	0xbac502d8	-0.0015030755
16	0x3cd4bef5	0.025969962
17	0x3e89ec8f	0.26938292
18	0x3ebe7fd5	0.37206903
19	0xbe5e6a1d	-0.21720167
20	0x3cb28f78	0.021796927
21	0xbdb2f32b	-0.08737787
22	0xbe3eae3d	-0.18621154
23	0xbcffacb0	-0.031210274
24	0xbe63de50	-0.22252774
25	0x3e919012	0.2843023
26	0xbdd09e06	-0.101863906
27	0x3ed61746	0.4181463
28	0x3e1cbfde	0.15307567
29	0x3e5fe528	0.2186476
30	0x3e8a89f9	0.2705839
31	0x3ca5362a	0.020167429
32	0xbecbc5eb	-0.39799437
33	0x3d9718c0	0.073777676
34	0xbe134a40	-0.14383793
35	0x3d878d87	0.06618791
36	0x3e1f4eb3	0.15557365
37	0x3e1d07f9	0.15335073
38	0x3db7246c	0.08942494
39	0xbe4e8637	-0.20168386
40	0xbe897a10	-0.2685094
41	0xbe87b0c1	-0.2650204
42	0xbd984371	-0.074347384
43	0xbd44f307	-0.04808333
44	0x3d400614	0.046880797
45	0x3dcbfdf8	0.0996055
46	0x3ceb31f2	0.02871034
47	0xbdd66cda	-0.104699805

bias f4 [8]
0	0xbea59486	-0.32339877
1	0x3e18a9e4	0.14908558
2	0xbf0941e5	-0.5361617
3	0x3e6b3de8	0.22972834
4	0x3ee1dfc0	0.4411602
5	0x3e97d648	0.2965567
6	0xbc3247b2	-0.010881351
7	0x3ece03de	0.40237325

weight_ih_l0 f4 [16, 8]
0	0xbdd6fd3d	-0.1049752
1	0xbe4f5f07	-0.20251094
2	0x3e947b15	0.29000154
3	0x3e92e0b3	0.28687057
4	0xbd146ed3	-0.036238503
5	0xbed1e658	-0.4099605
6	0xbbefaa03	-0.007313968
7	0xbdcf8b7d	-0.10134027
8	0x3ebe8ff2	0.37219197
9	0xbe80cc86	-0.2515604
10	0xbea60d38	-0.3243196
11	0xbcc88172	-0.024475787
12	0xbc8ec55b	-0.01742809
13	0xbe9d327a	-0.30702573
14	0xbf1fe941	-0.6246529
15	0xbd16c1fb	-0.036806088
16	0x3d0c48ce	0.03424912
17	0x3d8d8a37	0.06911128
18	0xbc165d86	-0.009177571
19	0xbe97832c	-0.29592264
20	0x3e28b883	0.16476636
21	0x3e94f7b3	0.2909523
22	0xbea42429	-0.32058838
23	0xbd424f5d	-0.047438968
24	0x3db514bd	0.08841846
25	0x3bb2b669	0.005453874
26	0xbec0c20a	-0.3764804
27	0xbe9273c7	-0.28603956
28	0xbf1fea2c	-0.6246669
29	0x3d8571f2	0.06515874
30	0x3e89b065	0.2689239
31	0xbd10f8c8	-0.035393506
32	0x3e50ca7a	0.20389739
33	0xbee6019e	-0.4492311
34	0x3ef15e0d	0.47142068
35	0xbebf7f3b	-0.37401757
36	0xbf01b849	-0.5067182
37	0x3e82ccec	0.25546968
38	0xbe093981	-0.13400842
39	0xbdd142a5	-0.102177896
40	0x3e31ace8	0.17351115
41	0x3e2d3466	0.1691452
42	0xbdb2b9a6	-0.08726816
43	0x3c9770eb	0.01848646
44	0x3e9f691d	0.31134883
45	0xbec24af1	-0.379478
46	0xbd5e0867	-0.05420723
47	0xbe44ece5	-0.19230993
48	0xbe341c63	-0.17588954
49	0x3dce76d9	0.10081262
50	0x3ee00347	0.437525
51	0xbe75fccc	-0.24022216
52	0xbf01a2e4	-0.50639176
53	0x3d779322	0.06044305
54	0xbe934eaa	-0.28770953
55	0xbf258228	-0.6465173
56	0xbf14fe18	-0.58200216
57	0xbeac4669	-0.3364747
58	0xbe82f39d	-0.25576487
59	0xbc16d741	-0.009206594
60	0x3dab5163	0.08365133
61	0x3e1d31b8	0.15350997
62	0xbd3c4485	-0.045963783
63	0x3d61fa3e	0.05517029
64	0x3e67913c	0.22613996
65	0x3d9c9fee	0.07647692
66	0xbdefffc1	-0.11718703
67	0x3ebc1baf	0.3673987
68	0xbbc4270a	-0.005986099
69	0x3efdc540	0.49564552
70	0x3e9ec789	0.31011608
71	0x3d86b81d	0.065780856
72	0x3eb86476	0.36014146
73	0x3e134397	0.14381252
74	0xbeb344c2	-0.35013396
75	0xbddb4a0c	-0.10707483
76	0xbe27042b	-0.16310184
77	0x3db158cb	0.08659514
78	0xbd0b8c2a	-0.034069218
79	0x3ea89f72	0.32934147
80	0xbdedbceb	-0.11608299
81	0x3de28735	0.11060945
82	0x3e5d40ce	0.21606752
83	0xbd98ca0d	-0.07460413
84	0xbeca0b67	-0.39461824
85	0xbe0b6d28	-0.13615859
86	0xbdb42dd3	-0.08797803
87	0xbeade5f5	-0.33964506
88	0x3cafaffc	0.02144622
89	0xbebb1fe1	-0.3654776
90	0x3e544ba8	0.20731986
91	0x3e486e96	0.19573435
92	0xbe531de2	-0.20616868
93	0x3db63121	0.08896089
94	0xbe69171d	-0.22762723
95	0xbefa61aa	-0.48902637
96	0xbdddcd15	-0.10830132
97	0x3df9090d	0.121599294
98	0xbed0b958	-0.40766406
99	0x3e7f2f56	0.24920401
100	0xbf032dba	-0.5124165
101	0x3eae2035	0.34008947
102	0x3dadd4f7	0.084878854
103	0xbec94914	-0.39313567
104	0xbf274015	-0.65332156
105	0xbbabc772	-0.0052422816
106	0x3e677272	0.22602251
107	0x3e8deb52	0.27718598
108	0x3c37bf00	0.011214972
109	0x3e8aa15c	0.27076232
110	0x3e185679	0.14876737
111	0x3e7373be	0.23774621
112	0x3e362464	0.1778732
113	0x3dc2231f	0.09479355
114	0xbca1ee5f	-0.019766985
115	0x3d2a7c74	0.041622594
116	0x3d8934be	0.06699513
117	0xbea205a4	-0.31644928
118	0x3e12ac8a	0.14323631
119	0x3dac7903	0.08421519
120	0xbc78dcc0	-0.01518935
121	0x3e0d60e7	0.13806497
122	0x3ed9d28f	0.42543456
123	0xbde850a6	-0.113435075
124	0xbd88624b	-0.06659373
125	0x3ea0ef21	0.3143244
126	0x3e21f0e6	0.15814552
127	0xbde9273f	-0.11384439

weight_hh_l0 f4 [16, 4]
0	0xbef6724c	-0.48134077
1	0x39ad3d70	0.00033042906
2	0x3d5bb7d9	0.053642128
3	0x3f51733a	0.81816447
4	0x3dd6cbd4	0.10488096
5	0x3e24a256	0.16077551
6	0xbdb99990	-0.09062493
7	0x3e67020d	0.22559376
8	0xbd2bffe3	-0.04199208
9	0x3e84f545	0.25968376
10	0x3caa5af5	0.020795325
11	0x3f659a07	0.8968815
12	0x3de6ef8d	0.112761594
13	0xbeab42e2	-0.33449465
14	0x3eeb7c53	0.4599329
15	0x3cc131f4	0.02358339
16	0xbeb5a870	-0.3548007
17	0xbe8abe71	-0.2709842
18	0x3df91f56	0.1216418
19	0xbde0c7dc	-0.1097562
20	0xbedd38fd	-0.4320754
21	0x3e9ff776	0.31243485
22	0x3dfbd7ee	0.12297045
23	0xbe579dfe	-0.21056363
24	0xbcb9bc7c	-0.022672884
25	0xbeb4abfb	-0.3528746
26	0x3f1992b8	0.599895
27	0xbe201f3f	-0.1563692
28	0xbe90b5a4	-0.2826358
29	0xbde6e6a3	-0.11274459
30	0xbe66fc53	-0.22557192
31	0xbeb200c3	-0.34766206
32	0xbea90871	-0.33014253
33	0xbe96114c	-0.2931007
34	0x3e65a3c0	0.22425747
35	0x3e2a9dd1	0.16661765
36	0xbe96c961	-0.29450515
37	0x3dd2ae94	0.102872044
38	0xbef21455	-0.47281137
39	0x3ea8d511	0.32975057
40	0xbe7a53a7	-0.24445973
41	0x3e811217	0.25209114
42	0xbd71bd4a	-0.05901841
43	0xbe539e10	-0.20665765
44	0x3969bb55	0.00022290398
45	0x3e48c5ea	0.19606748
46	0x3e4b2961	0.19840004
47	0x3e106a44	0.14103037
48	0x3e5f5c59	0.21812572
49	0x3eb9a5b3	0.3625923
50	0x3f25f83d	0.64831907
51	0xbe01e67d	-0.1268558
52	0xbea8037d	-0.3281516
53	0x3e28ecdf	0.16496609
54	0x3eed4547	0.46341917
55	0xbed085d6	-0.4072711
56	0x3e020f92	0.12701252
57	0x3f27f89c	0.6561372
58	0x3f1fdb34	0.6244385
59	0x3f598d30	0.8498106
60	0xbd683980	-0.05669546
61	0x3e2134d2	0.15742806
62	0x3f19fc9d	0.6015108
63	0xbe8daed3	-0.27672443

bias_ih_l0 f4 [16]
0	0xbe9356eb	-0.2877725
1	0xbec29fc5	-0.3801252
2	0x3df7710e	0.1208211
3	0x3e04dad6	0.12974104
4	0xbf148706	-0.5801853
5	0x3e75e9dc	0.24014992
6	0x3e38f744	0.18063074
7	0xbdbf8e65	-0.093533315
8	0x3f184efb	0.59495515
9	0xbed59456	-0.41714734
10	0xbdea08b8	-0.11427444
11	0xbda5795c	-0.08079788
12	0xbd2d6483	-0.042332184
13	0x3dd536a4	0.104108125
14	0xbd882d3d	-0.066492535
15	0x3f13e449	0.5777021

bias_hh_l0 f4 [16]
0	0xbeef5e85	-0.467518
1	0xbd83aa22	-0.06428935
2	0xbd41f7e6	-0.047355555
3	0xbebe8050	-0.3720727
4	0xbea5ebc5	-0.3240644
5	0xbf063a64	-0.5243285
6	0xbed53def	-0.41648814
7	0xbeaad238	-0.3336351
8	0x3f042501	0.51618963
9	0xbe56d294	-0.20978767
10	0xbc9b7eb2	-0.018981311
11	0xbeba2520	-0.3635645
12	0x3e2162a0	0.15760279
13	0xbe134fbc	-0.14385885
14	0xbf133b53	-0.57512397
15	0xbd659f23	-0.056059968

weight f4 [1, 4]
0	0xbdc5c479	-0.09656615
1	0x3ce19945	0.027538905
2	0x3e273690	0.16329408
3	0x3d03f29c	0.032213792
