models/stock_lstm_state_dict.pt (torch, 164786 bytes, 7 tensors)

encoder.weight f4 [8, 6]
-0.088051766 0.13287355 -0.28689814 -0.2935195 0.32701513 0.049144797 -0.02120564 0.24373704
-0.1003918 0.15063271 -0.22813292 -0.17091915 0.12981017 0.06299118 -0.14757736 -0.048393838
0.13082008 0.2628139 0.28105268 -0.22615969 -0.08688631 -0.076458044 -0.21270089 -0.07925346
-0.17696089 0.22276132 -0.18529317 0.35137808 0.20564914 0.24144848 0.24050108 0.06079013
-0.30559406 0.20710239 -0.26962188 0.05421647 0.20010243 0.08010872 0.16774143 -0.17267574
-0.36548486 -0.17439811 0.00589254 -0.15239704 0.013608759 -0.0166583 -0.17510678 -0.06627934
00000000: 7c54 b4bd 0110 083e 50e4 92be 3048 96be
00000010: 876e a73e 0e4c 493d 73b7 adbc 3496 793e
00000020: 379a cdbd 763f 1a3e ad9b 69be 6e05 2fbe
00000030: f5ec 043e 8501 813d 851e 17be 9e38 46bd
00000040: b3f5 053e 8b8f 863e 23e6 8f3e 6896 67be
00000050: 73f1 b1bd 0996 9cbd 43ce 59be a34f a2bd
00000060: 3c35 35be 8b1b 643e 7ebd 3dbe d4e7 b33e
00000070: b095 523e 453e 773e ea45 763e 12ff 783d
00000080: d376 9cbe a612 543e e10b 8abe 1712 5e3d
00000090: a7e7 4c3e 0a10 a43d 69c4 2b3e e9d1 30be
000000a0: d520 bbbe 6b95 32be 3516 c13b f80d 1cbe
000000b0: 46f7 5e3c fd76 88bc 314f 33be 76bd 87bd

encoder.bias f4 [8]
-0.34564176 0.12385032 -0.5001488 0.28017 0.44919094 0.34832904 -0.11230872 0.4542917
00000000: f5f7 b0be 3da5 fd3d c009 00bf 7172 8f3e
00000010: 5bfc e53e 2f58 b23e 1d02 e6bd ec98 e83e

lstm.weight_ih_l0 f4 [16, 8]
-0.14132112 -0.17635113 0.30197144 0.2976972 0.0004355932 -0.42755508 -0.037953787 -0.09368389
0.30562505 -0.4062381 -0.25765678 0.065163195 0.14053674 -0.24662317 -0.48453638 -0.051507123
0.04605718 0.13653181 -0.015272225 -0.3665692 0.14412698 0.27640483 -0.3075214 -0.027433017
0.008281104 0.07587524 -0.35161734 -0.34112617 -0.5221463 0.026053656 0.29990584 -0.007530213
0.24265301 -0.34915555 0.46417016 -0.3339732 -0.508053 0.24951147 -0.10227103 -0.12843306
0.086017005 -0.0067745047 0.0075146183 0.08870031 0.39587414 -0.31225234 0.028040431 -0.19425416
-0.16786918 0.10260518 0.39865232 -0.24921325 -0.4326093 0.07281239 -0.32029778 -0.6425282
-0.49309015 -0.34961256 -0.21593784 -0.014797196 0.047053985 0.18862772 -0.009333921 0.076037474
0.16176823 0.17477474 -0.2480988 0.32374194 0.09960988 0.5117292 0.34188324 0.046466343
0.18640777 0.18991874 -0.39900523 -0.083283156 -0.24331665 0.11258628 0.054237984 0.32050738
-0.1530582 0.14941713 0.2617188 -0.07311515 -0.43385044 -0.14231838 -0.08966617 -0.35845184
-0.042402092 -0.28598848 0.007124387 0.082907915 -0.23060226 0.101797454 -0.21399155 -0.46186453
-0.15816727 0.104966335 -0.40992248 0.2772577 -0.49100402 0.32916266 0.10864835 -0.411696
-0.5425513 -0.092207715 0.43910307 0.25876695 0.19582044 0.32244393 0.28043067 0.096385606
0.15446454 0.10196922 0.0006158415 0.03794844 0.024712002 -0.33308733 0.17002189 0.08915753
-0.11640022 0.23573688 0.40844604 -0.078487515 -0.15351215 0.2635493 0.12500292 -0.12173849
00000000: 7cb6 10be 6495 34be 009c 9a3e c46b 983e
00000010: 5460 e439 80e8 dabe 6e75 1bbd 57dd bfbd
00000020: e37a 9c3e 71fe cfbe 97eb 83be 4874 853d
00000030: dde8 0f3e c98a 7cbe 2715 f8be 22f9 52bd
00000040: 74a6 3c3d ffce 0b3e 5b38 7abc f5ae bbbe
00000050: 0696 133e ef84 8d3e 7273 9dbe 35bb e0bc
00000060: 78ad 073c 7a64 9b3d 3007 b4be 17a8 aebe
00000070: 61ab 05bf 7a6e d53c 428d 993e 01c0 f6bb
00000080: 087a 783e 84c4 b2be b6a7 ed3e 89fe aabe
00000090: c30f 02bf ef7f 7f3e 7973 d1bd f583 03be
000000a0: af29 b03d aafc ddbb 303d f63b 82a8 b53d
000000b0: 04b0 ca3e 8adf 9fbe 0cb5 e53c 90ea 46be
000000c0: e6e5 2bbe aa22 d23d 281c cc3e c231 7fbe
000000d0: f77e ddbe aa1e 953d 12fe a3be ba7c 24bf
000000e0: 5076 fcbe 6b00 b3be cf1e 5dbe f06f 72bc
000000f0: aebb 403d a027 413e 4ded 18bc 89b9 9b3d
00000100: 92a6 253e 26f8 323e 9d0d 7ebe 81c1 a53e
00000110: 4400 cc3d af00 033f 520b af3e 7e53 3e3d
00000120: aee1 3e3e 0f7a 423e 6a4a ccbe 5c90 aabd
00000130: 0028 79be a393 e63d a628 5e3d 8b19 a43e
00000140: 4abb 1cbe ce00 193e 0200 863e 65bd 95bd
00000150: a521 debe e9bb 11be e6a2 b7bd 0087 b7be
00000160: d1ad 2dbd 156d 92be b173 e93b a0cb a93d
00000170: 0023 6cbe 2f7b d03d 9a20 5bbe 8279 ecbe
00000180: 9af6 21be 97f8 d63d 5ce1 d1be b9f4 8d3e
00000190: e164 fbbe 0288 a83e 0783 de3d d1c9 d2be
000001a0: a4e4 0abf 66d7 bcbd 1ed2 e03e 1a7d 843e
000001b0: 2785 483e 5f17 a53e 9c94 8f3e d165 c53d
000001c0: f42b 1e3e 3dd5 d03d 6c70 213a d36f 1b3d
000001d0: d370 ca3c 6c8a aabe 381a 2e3e 3998 b63d
000001e0: 3d63 eebd 0265 713e d71f d13e 10be a0bd
000001f0: 4a32 1dbe efef 863e c400 003e 0852 f9bd

lstm.weight_hh_l0 f4 [16, 4]
-0.48893878 -0.07477945 -0.025893565 0.7814695 0.1836214 0.041309375 -0.25656104 0.19684716
-0.062581375 0.23660754 -0.05249415 0.8703906 0.022949874 -0.3447765 0.41480446 0.01665355
-0.41150373 -0.24080819 0.081747256 -0.120034836 -0.39368412 0.2856713 0.049066864 -0.24559468
-0.065496705 -0.374182 0.50637805 -0.18908131 -0.312057 -0.07856335 -0.3252481 -0.35303497
-0.3770795 -0.329102 0.1806986 0.14672643 -0.27492622 0.12745532 -0.3420991 0.31123316
-0.15182081 0.21215466 -0.007403995 -0.1644428 0.039906487 0.18508872 0.23450203 0.17578833
0.14934298 0.3149908 0.55592495 -0.15710004 -0.28448638 0.06928728 0.39628685 -0.39710593
0.084864065 0.648619 0.5380752 0.8185111 -0.1811745 0.13139671 0.5698848 -0.2794824
00000000: 2f56 fabe f825 99bd be1e d4bc 630e 483f
00000010: 4007 3c3e 0534 293d f85b 83be 4d92 493e
00000020: aa2a 80bd 3f49 723e 1b04 57bd ebd1 5e3f
00000030: 6001 bc3c 8c86 b0be 4061 d43e 076d 883c
00000040: 9eb0 d2be 6c96 76be 1b6b a73d d3d4 f5bd
00000050: f790 c9be 8243 923e 56fa 483d 2c7d 7bbe
00000060: 2323 86bd c894 bfbe fea1 013f 889e 41be
00000070: efc5 9fbe d2e5 a0bd eb86 a6be 00c1 b4be
00000080: 9010 c1be 0f80 a8be 0e09 393e 743f 163e
00000090: 21c3 8cbe a683 023e 9d27 afbe f459 9f3e
000000a0: ea76 1bbe 123f 593e 369d f2bb b263 28be
000000b0: fc74 233d e687 3d3e 4d21 703e db01 343e
000000c0: 5eed 183e 7946 a13e 1951 0e3f d5de 20be
000000d0: 33a8 91be 7de6 8d3d 1ce6 ca3e 7851 cbbe
000000e0: 36cd ad3d e50b 263f 4cbf 093f f289 513f
000000f0: cf85 39be dc8c 063e f8e3 113f 5118 8fbe

lstm.bias_ih_l0 f4 [16]
-0.26934028 -0.29369184 0.15518492 0.13367383 -0.58870023 0.29304966 0.2119061 -0.061251987
0.59543604 -0.4427621 -0.090690136 -0.04328575 -0.025051197 0.13961248 -0.036635574 0.5624752
00000000: f8e6 89be c75e 96be cce8 1e3e cbe1 083e
00000010: 0fb5 16bf 9b0a 963e eafd 583e 5de3 7abd
00000020: 7f6e 183f b7b1 e2be c0bb b9bd 664c 31bd
00000030: 2b38 cdbc 93f6 0e3e 2f0f 16bd 60fe 0f3f

lstm.bias_hh_l0 f4 [16]
-0.44908577 0.022143759 -0.012991986 -0.36813945 -0.33257985 -0.47143212 -0.38521472 -0.30135337
0.5166705 -0.2354011 0.004602939 -0.32605207 0.17488366 -0.10835419 -0.54526645 -0.07128826
00000000: 92ee e5be d466 b53c 57dc 54bc c67c bcbe
00000010: e847 aabe 8d5f f1be dd3a c5be fd4a 9abe
00000020: 8544 043f fc0c 71be 40d4 963b 4cf0 a6be
00000030: b414 333e cde8 ddbd 9596 0bbf 94ff 91bd

linear.weight f4 [1, 4]
-0.112404324 0.01580668 0.19548586 0.03358386
00000000: 3d34 e6bd 037d 813c 722d 483e 3b8f 093d
